model/best_policy_value_net.pth (torch, 496247 bytes, 30 tensors)

weight f4 [32, 7, 3, 3]
000000 83 e3 e4 3d 7f 46 18 3c be ca 41 bd 20 c7 f6 bc
       0.11176207 0.009294151 -0.04731249 -0.030124247
000010 ed 0b a4 3d ed 65 7a 3d b2 cf 3d 3d 89 bb d7 bd
       0.08010087 0.06113236 0.04634065 -0.10533816
000020 b0 a2 8a 3c cd cc ff 3c 1e 7d cb 3c 63 5a b0 bd
       0.016923279 0.031225586 0.024839934 -0.0861099
000030 75 fc b2 bd e7 a5 f4 bd e6 da dd bd 89 0a cf 3d
       -0.087395586 -0.11945706 -0.10832767 0.10109431
000040 fa 1c c4 bd 2f 31 c3 3d 5a fa 8b bc b8 67 9d 3d
       -0.09575839 0.095308654 -0.01708715 0.076857984
000050 e1 aa 72 bd 3a c8 b0 3d 29 f1 f3 bd 6b 67 f5 3d
       -0.059244994 0.0863194 -0.11911232 0.11982616
000060 ad 21 f1 3d 8b b4 0d 3d cf 1c a1 bd 29 6e 6f 3b
       0.11774001 0.034596007 -0.07866823 0.0036534166
000070 52 99 5b 3d 8f dd ec bd fc 18 82 bc 5c 15 80 3c
       0.053613015 -0.115656964 -0.015881054 0.015635185
000080 d0 9b d2 3c 05 ea 8b bd a7 92 e4 3c c3 89 85 3b
       0.025709063 -0.06831745 0.02790196 0.0040752604
000090 8d 71 85 bd c6 9b e1 bd 4f a8 d1 3c 8a 16 d5 bd
       -0.06515799 -0.110160396 0.025592951 -0.104046896
0000a0 30 36 71 bd 0f d1 06 3e 8f d9 d1 bd 26 1c 10 3e
       -0.058889568 0.13165687 -0.10246574 0.14073238
0000b0 6e 31 d2 bd d4 bb 94 3d 36 7b 45 bc 7b 22 b0 bd
       -0.10263334 0.07262388 -0.012053302 -0.08600327
0000c0 66 d6 38 3d 32 ba d8 bd 22 60 49 3d 1e ff b4 3d
       0.04512634 -0.10582389 0.049163945 0.08837722
0000d0 76 63 c4 3d ff b1 76 3c b5 89 21 3d 96 ca 19 bd
       0.09589283 0.015057086 0.03943797 -0.037546717
0000e0 31 29 c8 3d 91 c7 95 3d 57 14 96 bd dd b6 a7 bd
       0.09773482 0.07313455 -0.07328098 -0.08189175
0000f0 fb 63 95 bd f4 b2 f6 bb fe f0 c6 3d ac f0 b4 3b
       -0.072944604 -0.007528657 0.09713934 0.0055218544
000100 76 b7 8d 3d e3 33 b9 bd 75 aa dd 3c 2c 3d 9d 3d
       0.06919758 -0.090431 0.02705882 0.07677683
000110 4a 0b 0a be c9 1f a2 bd a1 a7 8b bd 64 97 06 bd
       -0.13480869 -0.07916219 -0.06819082 -0.03285922
000120 46 1d 29 3d 36 71 83 3d ed b8 e5 bd cc 46 9a bd
       0.041287683 0.06418078 -0.112169124 -0.07533035
000130 da ef 59 3d 37 67 9f bb 9b 3e 5a 3d 2a cf 5b 3d
       0.053207256 -0.004864599 0.05328236 0.053664364
000140 46 de 87 3d c6 6e 57 3b 75 e5 ad bd 90 a0 8e bd
       0.06634192 0.0032872423 -0.08491031 -0.069642186
000150 0c 35 01 be ae 71 8d 3d 2e e1 cc bb d0 6f 3f bb
       -0.12617892 0.06906448 -0.0062524294 -0.0029210933
000160 6f 30 28 3d 6f 3b da b9 b8 13 cb bc da d9 ab 3c
       0.041061815 -0.00041624482 -0.024789676 0.020977903
000170 36 ad e4 3d 50 e0 6c 3d 0e cf 3b 3d cb e3 ad bd
       0.1116585 0.05783111 0.04585176 -0.08490714
000180 e6 ba f8 bd 43 07 d2 3c 3a 87 00 3d 00 44 1c 3d
       -0.12145023 0.025638228 0.031378962 0.038150787
000190 27 87 a6 3c dc 38 9d bd bc 29 e7 bd 74 2f 41 3d
       0.020328118 -0.07676861 -0.11287257 0.047164395
0001a0 8e 4f ff bc ae 61 27 bd 0c 11 fb 3c 9e 8f 1f 3d
       -0.031165864 -0.04086464 0.030647777 0.038955323
0001b0 83 57 7b 3d f6 3b e1 bc 8c 63 92 bd ac 8d 38 bd
       0.061362755 -0.027494412 -0.07147893 -0.045056984
0001c0 cc e6 02 3e 4d 4a 0a 3e e7 51 b0 3d fc 6b d7 bc
       0.12783355 0.13504906 0.08609372 -0.026296608
0001d0 1e c0 af 3d ee 54 b6 3d 7c fd e2 3c 8b db e6 bc
       0.08581565 0.08902918 0.027708761 -0.028180858
0001e0 30 62 b0 bc 8e 7a b5 bd d4 69 e7 3d db fc 91 bc
       -0.021531194 -0.08861266 0.11299482 -0.017820766
0001f0 d8 86 32 bc 67 d1 19 3d 74 3f 2f 3d 8e 2f 88 3c
       -0.010896407 0.037553217 0.042785123 0.016624238
000200 8d 85 e8 3c 37 53 b3 bd b1 8d 1b 3d f9 17 67 3d
       0.028383994 -0.08756106 0.037976924 0.056419346
000210 11 7f 00 bb 44 e1 93 bd 92 86 09 3d 14 94 9e 3c
       -0.0019606987 -0.072207004 0.033575602 0.019357719
000220 1d b0 67 3c a8 71 40 3c 53 3d 83 bd 1e 92 a7 3d
       0.01414111 0.011745848 -0.06408181 0.081821665
000230 a5 10 b1 bd e3 98 78 3d 2f e2 44 3d 66 a6 77 3c
       -0.08645753 0.06069268 0.048067268 0.015115356
000240 9c 34 c6 bd cd ba 34 bd 27 3a 7f bd 05 b1 bc bd
       -0.09678003 -0.04412346 -0.062311318 -0.09213451
000250 a0 39 48 bc cf fc aa 3c 47 47 07 bc 53 f5 f4 3c
       -0.01222077 0.020872502 -0.00825674 0.029902136
000260 d2 9b 0b 3d 64 d2 ae bd d6 af 08 3d 88 4b 97 3d
       0.03408415 -0.085362226 0.033370815 0.07387453
000270 11 ad a4 3c 5c d7 93 bd ef 83 bc bc 32 b7 f1 bd
       0.020102056 -0.07218811 -0.02301213 -0.1180252
000280 42 e9 b7 3d f2 7c 5e 3d be 51 c5 3d d8 f9 09 3e
       0.08980037 0.054318376 0.09634732 0.13474214
000290 19 0a e7 bd 91 ac fc bb 50 53 1e bd 05 18 9e bd
       -0.11281223 -0.007711001 -0.03865367 -0.07719425
0002a0 39 4e c2 3b b9 86 ec 3c 37 49 00 bd 89 b7 40 bd
       0.005929735 0.028872835 -0.031319823 -0.047050033
0002b0 63 df 5d bd ea 3c 01 bd df 9a e3 bd 6f 5b 33 3d
       -0.054168116 -0.031552233 -0.11113524 0.04378837
0002c0 ec 19 7b bc b7 be 51 bd 8b 35 0b 3d 0e e7 19 3d
       -0.0153260045 -0.05120727 0.03398661 0.037573867
0002d0 8e 88 bd bb 95 ff 29 3d c1 55 dd 3c 4f a8 12 3e
       -0.005784101 0.041503508 0.02701843 0.14322017
0002e0 bc fd c8 bd e6 58 83 3d 55 22 0a 3e d0 24 ff bc
       -0.09814021 0.064134404 0.13489659 -0.031145483
0002f0 4e 87 c9 3d e4 ae 52 3d f3 b7 80 bd 97 d8 b4 bd
       0.098402604 0.05143632 -0.062850855 -0.08830374
000300 61 fa 9f bd b0 9b 8a bd 53 5b 6d 3d 05 cb 8f 3c
       -0.07811428 -0.06767976 0.05794842 0.017552862
000310 8c 34 83 bd 7a 44 f4 3d 70 9f 86 3b c8 a9 62 3c
       -0.06406507 0.11927123 0.004108362 0.013834424
000320 5d 67 6b 3d 3a 59 f0 bc b6 59 36 bd 39 18 aa 3d
       0.05747162 -0.029339422 -0.04451915 0.08305401
000330 4b ce 12 bb ea a4 88 bd 5e 49 96 3c 80 fb 05 be
       -0.0022400792 -0.0667208 0.018345531 -0.13084221
000340 5a 21 9c 3d e4 a1 1f bc d8 c3 5e bc 7a 7e 17 3a
       0.07623549 -0.009743188 -0.0135964975 0.00057790393
000350 7e a2 20 bd d5 3e b3 bd 36 65 37 3d b2 f6 ae bd
       -0.039217465 -0.08752219 0.044774257 -0.08543147
000360 8a c7 8a bd 1b 9f d2 bd 54 26 0b 3e 8a 9f ad bd
       -0.0677634 -0.10284253 0.1358884 -0.08477695
000370 aa 98 49 3d a9 1e 76 bc c0 58 91 3d 08 12 bb 3d
       0.049217857 -0.015021958 0.07097006 0.091342986
000380 b9 3b 53 bd 09 37 d7 bd fd 8e 83 bd cb c0 0d 3d
       -0.051570628 -0.10508544 -0.06423757 0.03460769
000390 3b 99 b6 3c 92 cc ed bc 81 85 b8 3d ee 6f 8c bb
       0.022289863 -0.02902821 0.09009839 -0.004285804
0003a0 d7 91 a2 bd 46 2c 80 3d 48 48 cd 3b d6 25 73 bd
       -0.07937973 0.062584445 0.00626472 -0.059362255
0003b0 87 b7 00 3e 51 bc 39 bd b3 79 85 bd 09 19 71 3d
       0.1257001 -0.04534561 -0.06517353 0.058861766
0003c0 bb cb b3 bd 76 ab 05 be c5 b8 86 bd 99 1a bc 3d
       -0.08779093 -0.13053688 -0.06578211 0.091847606
0003d0 42 51 07 3d 69 e8 66 3d 25 f2 bb bd 5d fa 5d 3d
       0.033036478 0.056373987 -0.09177045 0.054193843
0003e0 36 37 56 3c 86 e7 26 3d aa 4b 8b 3d d2 25 15 3d
       0.013074687 0.04074814 0.06801541 0.03641302
0003f0 98 38 15 bd 29 2a 0f 3e 3d 30 12 bd 02 6b 2f 3c
       -0.036430925 0.13980927 -0.035690535 0.010706665

bias f4 [32]
000000 fa 42 e7 bd b4 ea 43 bd 3a b5 ca bd 67 da a1 3d
       -0.11292072 -0.047831252 -0.098978475 0.07902985
000010 c1 df e4 bd d5 af 8c 3d 1f b8 db bd b9 46 7a bd
       -0.1117549 0.06869475 -0.10728478 -0.061102603
000020 9c 47 a9 bc 43 3b cf 3d ac dd 12 3d 81 43 a0 3d
       -0.020664029 0.10118725 0.035855934 0.07825375
000030 e0 f9 57 bd 94 23 e4 b9 7e ae fc bd 2a 89 8d 3c
       -0.052728534 -0.00043514057 -0.12337969 0.017277319
000040 ad ba 51 bd f8 cf 0b bb fc 87 8d bd bd d8 66 3d
       -0.05120342 -0.0021333676 -0.069107026 0.05635904
000050 42 57 94 bd 3c 1e a3 3d d5 57 95 39 d3 25 8d bb
       -0.072432056 0.07964751 0.00028484935 -0.0043074875
000060 f1 61 94 3b 6e a5 c3 bc b5 47 2e bc 9a f8 36 bb
       0.004528277 -0.023882594 -0.0106372135 -0.0027919174
000070 a8 dc 16 3d e8 24 86 3d 4b 25 35 bd 46 b4 72 3d
       0.036831528 0.06550008 -0.04422502 0.059253953

weight f4 [32]
000000 24 eb 7c 3f 65 2b 81 3f 45 42 7d 3f 06 37 7e 3f
       0.98796296 1.0091368 0.98929244 0.9930271
000010 ae e5 7d 3f 71 c0 7a 3f 3f 22 78 3f 9d 4e 7b 3f
       0.9917859 0.9794989 0.96927255 0.9816683
000020 80 0a 80 3f 1f 00 7f 3f 80 93 7f 3f 1a 6a 7c 3f
       1.0003204 0.9960956 0.9983444 0.985994
000030 43 67 81 3f e5 06 7d 3f 29 5e 7d 3f f4 60 7d 3f
       1.0109638 0.98838645 0.989718 0.98976064
000040 b0 19 7c 3f 68 32 7b 3f 3b 9d 79 3f 9c a6 79 3f
       0.98476696 0.9812379 0.9750554 0.9751985
000050 91 42 7d 3f d5 56 7d 3f 54 92 7a 3f cd 70 80 3f
       0.989297 0.9896062 0.9787953 1.0034424
000060 6d 15 7f 3f d4 24 7f 3f 63 6f 80 3f da 83 7d 3f
       0.9964207 0.9966557 1.0033993 0.99029315
000070 ae 21 83 3f 1c 3d 80 3f 2f 4e 80 3f 4f ee 7a 3f
       1.0244653 1.0018649 1.002386 0.9801988

bias f4 [32]
000000 a1 0e 91 bb 21 fa 70 3c b0 95 c0 3b c3 c5 2c 3b
       -0.0044267927 0.014708073 0.005877219 0.0026362992
000010 c1 3c 5c bc 55 46 3e bb 54 d8 fe bb 88 d6 b9 bb
       -0.013442219 -0.002903362 -0.007777253 -0.005671326
000020 b7 3c 13 3c a9 6b 03 3b 3b e8 9e 3b de 6a 23 3b
       0.0089866435 0.0020053184 0.0048494614 0.0024935524
000030 e7 0e 9a 3b a1 49 b5 3a 0c 58 9b 3b 92 9a 73 bb
       0.0047014835 0.0013831147 0.0047407206 -0.0037170989
000040 db 51 1b 3c e9 ab fd ba b7 15 5a bc 90 02 7d bb
       0.009479965 -0.0019353601 -0.013310841 -0.0038606264
000050 34 33 63 bb 8e 78 a5 bb e0 00 3a bc b2 10 2b 3b
       -0.003466797 -0.0050497716 -0.011352748 0.002610248
000060 96 d2 9b 3b 0e 10 70 3b 81 9c 6a 3c 5a 22 50 bb
       0.0047553284 0.0036630663 0.01431954 -0.0031758756
000070 16 11 98 3c 94 02 fb 3a ad 3d 56 3b 1f 23 c4 bb
       0.018562835 0.0019150549 0.003269057 -0.005985632

running_mean f4 [32]
000000 ae 7e 1d be e8 82 6f bc 12 46 26 be c4 dc bb bd
       -0.15380356 -0.014618613 -0.16237667 -0.09172967
000010 35 19 26 3d a1 03 7a 3e 31 fe db 3a 92 b7 42 be
       0.040551383 0.24415447 0.0016784129 -0.19015339
000020 c6 10 42 bd f8 69 7a 3e e1 b1 8e 3e 52 47 02 be
       -0.047379278 0.24454486 0.27870086 -0.12722519
000030 e2 08 24 3d af c2 1d be 4b e6 06 be f2 32 9e bc
       0.040047534 -0.15406297 -0.13173787 -0.019311402
000040 42 bb 0b 3e ca fd 9a 3d 5d 1d 35 bd 80 a7 a3 bd
       0.13645652 0.07567938 -0.044217456 -0.079909325
000050 73 d1 1a be ed b6 06 3e 7e 42 cc bc e5 a7 9e 3e
       -0.15118961 0.13155718 -0.02493405 0.30987468
000060 40 42 e9 bd 30 51 24 be f0 3b 02 be 2a bc c3 bd
       -0.11389589 -0.16046596 -0.12718177 -0.09557374
000070 40 04 b9 3d 13 f3 aa 3e fa d5 83 bd a8 5c 00 3d
       0.09034014 0.33388576 -0.06437297 0.031338364

running_var f4 [32]
000000 60 e3 51 3d f6 18 31 3d 6f 5b c2 3c b6 91 6b 3d
       0.051242232 0.043236695 0.02372524 0.057512008
000010 61 9a a7 3d 2f aa f4 3c 6a 75 85 3d a0 af 8d 3d
       0.08183742 0.029866306 0.065165356 0.069182634
000020 2b 58 7f 3d 44 69 51 3d 4f 28 63 3d a9 db 5f 3d
       0.062339943 0.05112578 0.055458363 0.054652844
000030 47 d8 51 3d a6 c8 81 3d a0 7e 26 3d e4 6b 5e 3d
       0.05123165 0.06337099 0.040648103 0.05430211
000040 0a d1 83 3d c2 b3 ae 3d d5 58 7f 3d 50 be 59 3d
       0.064363554 0.0853038 0.062340576 0.05316001
000050 95 9f 5a 3d 3e 38 47 3d ab b3 99 3d 2a 2c 35 3d
       0.053374846 0.04863762 0.07504972 0.04423157
000060 b2 2b 0b 3d 0d e8 3c 3d 02 a2 94 3d 2c b0 0e 3d
       0.033977218 0.04611974 0.07257463 0.03483598
000070 0b aa 61 3d ef b4 72 3d 8f a2 02 3d e3 1d 7a 3d
       0.055093806 0.059254583 0.03189331 0.06106366

weight f4 [64, 32, 3, 3]
000000 cf d9 94 3b d7 0a 82 3c fe 14 59 3d ad 0d ce bc
       0.0045425664 0.01587431 0.052998535 -0.025153005
000010 83 e5 5c 39 ed d7 29 bd 9d 65 56 3d fe 1f fe 3c
       0.00021066335 -0.04146569 0.052343 0.031021114
000020 92 b2 30 3d bd bc db bc bf a7 d5 bc 3e 23 69 3b
       0.043139048 -0.026823396 -0.026080964 0.0035573984
000030 68 a8 3c bd b0 84 9e 3c 72 a8 84 bc 48 88 69 bd
       -0.046059042 0.01935038 -0.016193602 -0.057014734
000040 a9 09 1c bc 22 b5 6e 3d e7 10 a0 3c 99 30 53 bd
       -0.009523788 0.05827821 0.01953931 -0.05156002
000050 b3 c9 8a bb e8 1b 52 bd f7 c7 44 3d c8 db 86 bc
       -0.00423547 -0.051296145 0.048042264 -0.016462222
000060 c4 4c 3e bd 3d 22 9f 3c ac dc a5 bc 64 18 ba 3c
       -0.04645993 0.019425506 -0.020246826 0.022716708
000070 90 74 03 3c 5d 2c 24 bd 46 dd c3 bc cf b5 32 ba
       0.008023396 -0.04008137 -0.023909222 -0.0006817253
000080 de 63 05 3d 4a ae 3e bc e1 42 88 3c cf 3f 90 3c
       0.032565944 -0.011638233 0.016633453 0.017608551
000090 02 6b 25 bd 62 6b 25 3d 47 3f 27 3c 74 7c e8 3b
       -0.040385254 0.04038561 0.010207958 0.007094914
0000a0 be 22 65 bc 7f b4 83 3c 78 eb 37 3d ef 0a d0 bb
       -0.013985334 0.016077278 0.044902295 -0.0063489596
0000b0 79 60 16 3d 2e fb 84 bc a2 59 fa 3c 82 da 96 39
       0.036713097 -0.016233053 0.030560318 0.0002877303
0000c0 ed b5 a7 3c f6 8b 33 bd dd b2 11 bd 10 af 1c 3d
       0.020472491 -0.04383465 -0.035570968 0.03825289
0000d0 5f 00 7d bc 64 b6 8a 3d de 3c fa 3c 39 25 af bd
       -0.015441983 0.067730695 0.030546602 -0.085520215
0000e0 c6 fe 74 3d f3 a2 34 3d 09 a3 9b bc 60 f1 09 bd
       0.059813283 0.044100713 -0.01899864 -0.03367746
0000f0 04 f2 93 bb e0 1f f3 3c 07 9c 45 bd 72 ea c3 bc
       -0.0045149345 0.029678285 -0.048244502 -0.023915503
000100 f8 84 31 3d 25 5d 89 3d b5 63 55 3d 60 a8 6a bc
       0.0433397 0.06707219 0.05209704 -0.01432237
000110 62 04 bb 3c 31 2b d1 bc f7 50 68 bc 75 02 54 bd
       0.022829238 -0.02553329 -0.01417946 -0.051760156
000120 99 74 98 3c ec 89 0a bc f5 fa 82 3b 02 e4 40 bd
       0.018610286 -0.008455735 0.0039972016 -0.047092445
000130 35 dc e5 3c 46 a2 d0 3b 54 72 a9 3b 35 48 7e 3c
       0.028059104 0.0063670008 0.0051710997 0.015520145
000140 6b 3c 82 ba 8d 56 7e 3c f3 9e 40 3d 4f f0 50 bd
       -0.0009936219 0.015523565 0.047026586 -0.051010426
000150 c3 50 b8 3c 9d 92 e8 bb 65 88 12 3d 27 1e b5 bc
       0.022499448 -0.007097556 0.035774607 -0.022109104
000160 95 36 a2 bc 27 5c a0 3c 27 3d 03 3d e6 8e 33 3d
       -0.019801417 0.019575192 0.03204074 0.04383745
000170 75 f5 d0 3c b2 54 2a 3c 59 3c fd bc d8 01 b2 3c
       0.025507668 0.0103961695 -0.030912565 0.021729395
000180 2a 86 80 3d 9e c5 9b 3c 2f cc b9 3a 2c 97 70 3c
       0.0627559 0.01901513 0.0014175231 0.01468448
000190 e7 e1 f6 3c d1 96 34 3c 01 1e 0d bd 4e 57 14 3c
       0.030137016 0.011022286 -0.034452442 0.009054018
0001a0 66 c8 06 3d 1b 99 74 bb e3 30 3c bd 89 0e 2b bd
       0.03290596 -0.0037322703 -0.04594506 -0.04176191
0001b0 c0 00 8b 3c aa 29 91 3c 15 1e 22 3d 65 56 32 3d
       0.016968131 0.017720062 0.03957947 0.043539423
0001c0 ca 76 0b bc a5 d0 9c bc 3b 0c 09 3b 4a f6 2e 3d
       -0.008512208 -0.019142458 0.002091183 0.04271535
0001d0 9a 8b 22 3d 8e 88 de 3b d5 b9 73 bb d5 e6 0a bd
       0.039683916 0.006791181 -0.0037189622 -0.033911545
0001e0 4a 1d 75 bc 86 22 4e bd 41 7d d6 bc d5 ac 26 3d
       -0.014960596 -0.050325893 -0.026182773 0.04069217
0001f0 b6 54 03 bc ef ce 17 bc 1d 70 f7 3b 52 01 ac bc
       -0.008015802 -0.009265645 0.0075512067 -0.020996723
000200 85 58 4a 3c 4c ac d7 3c ac e6 36 3d 58 da 55 3c
       0.012350206 0.026327275 0.04465358 0.0130525455
000210 7e de 4d 3c a3 32 45 bc c7 d2 77 bc 0c 58 29 bb
       0.012565253 -0.0120359985 -0.015125937 -0.0025839834
000220 8d 40 c0 bc c4 9f 92 bd 50 86 76 bb 74 3b 29 3d
       -0.02346828 -0.07159379 -0.0037616678 0.041316465
000230 ea 5c 44 bd 2d 20 ef 3c a6 fc 3e 3d 51 32 13 bc
       -0.047940172 0.029190147 0.046627663 -0.008984164
000240 2d f2 51 bd 76 f3 19 3c a6 45 23 bd 1f dd 4f ba
       -0.051256347 0.0093964245 -0.039861344 -0.0007929373
000250 4a da 56 3d cc 57 39 bc 4b 12 2f bd e9 a0 4a 3c
       0.05245427 -0.011312436 -0.042742055 0.0123674655
000260 fd 74 3a bc e8 05 07 3d 74 ab 21 3d 36 a0 27 3d
       -0.011380431 0.032964617 0.03947015 0.040924273
000270 0c b2 08 3c 6c ca 2d bb 7c 46 94 3d 83 7a bc 3c
       0.008343231 -0.0026518358 0.07240006 0.023007637
000280 81 36 e1 bc 6f 07 e6 3c 4c 62 d6 3c b8 f2 9b bc
       -0.02749181 0.028079716 0.026169918 -0.019036636
000290 b0 19 f7 3c 85 b1 18 3c 96 8a 6d 3c 8a 4a 83 3c
       0.030163616 0.009319668 0.0144983735 0.016026754
0002a0 2b 78 24 3d df 29 17 bd 34 ec 47 3d 14 30 7b bc
       0.040153664 -0.036905166 0.048809245 -0.015331287
0002b0 56 9e f4 bc f9 7b b4 bb 8e ea f5 3b 4c 26 d7 bc
       -0.029860657 -0.0055079428 0.0075047677 -0.026263379
0002c0 e6 62 c8 bc 89 63 28 3c 54 3e db ba 2f ca 9c bc
       -0.024461221 0.010277637 -0.0016726949 -0.019139377
0002d0 4a 1b 5b 3c ac bc a5 3c 8c bd cf 3c 3b e2 18 bd
       0.013373205 0.020231567 0.025358938 -0.037325125
0002e0 d2 1b 1e bd 62 4c ed bc 94 78 b4 3c 35 64 f3 3c
       -0.03860075 -0.028967086 0.022030152 0.029710868
0002f0 00 bd 98 3c 49 53 3c bb 51 06 22 3d e0 ce 47 3c
       0.01864481 -0.0028736165 0.039556805 0.012195319
000300 2f e3 88 bd b5 d1 9f bc 33 4c 9b bc 69 02 b7 bc
       -0.06683957 -0.019509176 -0.018957233 -0.022340016
000310 8c b6 06 3c 87 ef 27 bd 33 05 8f 3b 28 4d 59 bd
       0.0082222335 -0.040999915 0.0043646335 -0.053052098
000320 70 ce 19 3d 14 d6 ed 3c ea 59 2e 3c f2 9a bd bc
       0.03755039 0.029032744 0.010641554 -0.023145173
000330 84 c0 07 3d 58 c6 70 bd bd bd 40 3d ef a6 33 3d
       0.03314258 -0.058782905 0.04705595 0.043860372
000340 aa 1f 0e bc db 9d 88 3d 82 3e 18 3d f4 1d 90 3c
       -0.0086745415 0.066707335 0.037168987 0.017592408
000350 d2 7d 06 3d 38 94 4b bd 20 4a d0 3c 39 b8 33 bd
       0.032834835 -0.0497019 0.02542597 -0.04387686
000360 7e 51 5b bd 2c 4b 37 3d 12 7b 94 bc 88 39 06 3d
       -0.053544514 0.044749424 -0.01812509 0.03276971
000370 64 30 58 bd 51 4f 80 bd ce a7 7b bc a7 79 0d 3d
       -0.052780524 -0.062651284 -0.015359832 0.034539845
000380 d6 07 29 3d 31 83 c3 3c 2f 17 d9 3c 9f ee d9 3c
       0.04126724 0.023866268 0.026500313 0.026603041
000390 ae 56 a1 bc 4f b9 1b bc ff 73 08 bd 72 87 65 bc
       -0.019694652 -0.00950463 -0.033313747 -0.014009343
0003a0 ad 92 8a 3c 7d f2 a1 3c 4e 86 91 bd 34 d6 60 3d
       0.016915644 0.019768948 -0.07105695 0.05489178
0003b0 55 98 63 bc 95 bc 1f bd 39 b1 4d bc 8a 5f 20 3b
       -0.013891299 -0.038998205 -0.01255446 0.0024471008
0003c0 6c d6 bf 3c f7 9e ef 3c 67 2a 6d bc 3a ec 82 bd
       0.023417674 0.029250605 -0.014475442 -0.06392713
0003d0 6e 44 82 3c 4d 01 0f 3d 2a a9 40 3d ca 64 2f 3c
       0.01590177 0.03491335 0.047036327 0.010705182
0003e0 15 0e fe 3b 3f ae 2e bd 5b 5a 5a 3d c0 8e db 3b
       0.0077531436 -0.042646643 0.053308826 0.0067003667
0003f0 76 f9 0b bd 75 e6 14 3d 5e 3f bb bc ab af 86 bd
       -0.03417345 0.036352593 -0.022857364 -0.06576475

bias f4 [64]
000000 85 a9 95 bb 40 ca 45 bd 29 e7 56 bd 4e 81 85 bb
       -0.0045673274 -0.048288584 -0.052466545 -0.004074252
000010 fd fd 57 bd 2c f6 45 bd 6c 1d 69 bc 0b 90 31 3d
       -0.052732456 -0.04833047 -0.014228206 0.04335026
000020 31 ec 10 bc f1 29 11 3d b1 ed b5 bc ef aa 43 3c
       -0.008845375 0.03544039 -0.022208067 0.011942609
000030 00 ac 38 3d 65 37 92 bb 10 e1 10 3d 6e 7c b4 bc
       0.045085907 -0.00446217 0.035370886 -0.022031989
000040 cf 12 25 3c 46 23 83 3c df 67 c6 3c 89 ca d1 3c
       0.010075285 0.01600803 0.024219451 0.025609272
000050 64 73 d0 bc 09 72 bf 3c dd 80 f1 bb 0d 2e af bb
       -0.025445648 0.023369806 -0.007370098 -0.005346066
000060 0d d4 30 bd 67 ef 03 3d 58 7b 1d bc 58 b2 f1 bb
       -0.043170977 0.032210734 -0.009611927 -0.0073759966
000070 b2 b8 ab 3c 10 93 6c bd ea 2c 30 3d 80 71 be 39
       0.020962093 -0.057757437 0.043011583 0.00036324188
000080 0e ab 1d 3d e7 cc 6e bd 20 26 b6 3c 96 d1 56 bd
       0.03849321 -0.05830088 0.022234976 -0.05244597
000090 58 bf f5 3c 00 5b 11 3d 1c b8 cc 3c 3a 08 9a 3c
       0.029998466 0.035487175 0.024990134 0.01880275
0000a0 1e 0a 80 3c 45 9a 31 bd 1d 77 a2 3c 98 3c 0a bd
       0.015629824 -0.043360014 0.019832188 -0.033749193
0000b0 9e 75 84 bc 05 64 8e 3c 7a 3c 04 bd 05 79 15 3c
       -0.016169365 0.017381677 -0.032284237 0.009123092
0000c0 a7 a0 13 bd 95 ee 88 3c 15 81 0d 3c 4d 3b 3d 3a
       -0.036041882 0.016715327 0.008636733 0.00072186143
0000d0 43 b8 5b bd bf 2f 33 3d 16 47 51 bd 29 d9 36 3d
       -0.053642523 0.043746706 -0.051093183 0.044640694
0000e0 5d 81 8f bc 0e 10 d7 3c 27 4a 0f bd f1 d0 45 bd
       -0.01751774 0.026252773 -0.034982827 -0.048294965
0000f0 b7 ae 2d bd b6 33 4e bd c7 89 90 3c 15 03 f1 b8
       -0.04240295 -0.050342284 0.017643822 -0.000114923496

weight f4 [64]
000000 67 54 7f 3f 44 73 7d 3f 04 4e 7d 3f 69 72 7e 3f
       0.9973816 0.99004006 0.9894717 0.99393326
000010 ae 79 7e 3f 4f c9 7d 3f 5f b5 7d 3f 4a 7f 7d 3f
       0.9940442 0.991353 0.99104875 0.9902235
000020 10 fb 7d 3f 66 ce 7c 3f e5 d1 7f 3f ae 7f 7e 3f
       0.99211216 0.9875244 0.9992965 0.99413574
000030 d6 d9 7e 3f 5a 75 7d 3f 45 d5 7d 3f 76 37 7c 3f
       0.9955114 0.9900719 0.9915355 0.98522127
000040 8c 96 7c 3f cb d6 7d 3f fd b6 7e 3f 08 b5 7c 3f
       0.98667216 0.99155873 0.9949797 0.9871373
000050 2b 36 7d 3f 41 ef 7b 3f 3b cf 7e 3f 9d b9 7e 3f
       0.9891078 0.9841195 0.9953496 0.99501973
000060 10 93 7c 3f 7c 0c 7f 3f 03 8d 7c 3f 58 e0 7c 3f
       0.986619 0.99628425 0.98652667 0.9877982
000070 5a 80 7d 3f 46 34 7e 3f 57 90 7e 3f 9b f5 7e 3f
       0.99023974 0.9929851 0.99438995 0.99593514
000080 ea 47 7d 3f 23 2a 7f 3f f1 3f 7c 3f c2 1b 7c 3f
       0.9893786 0.9967367 0.98535067 0.98479855
000090 b7 d5 7b 3f d5 d8 7d 3f d6 2f 7c 3f b9 25 7d 3f
       0.9837298 0.99158984 0.9851049 0.98885685
0000a0 0f 1e 7d 3f ea 45 7e 3f f3 1e 7d 3f b6 38 7d 3f
       0.9887399 0.9932543 0.9887535 0.9891466
0000b0 f1 38 7d 3f 88 f5 7e 3f 80 85 7f 3f 57 90 7f 3f
       0.9891501 0.995934 0.9981308 0.9982962
0000c0 21 4d 7d 3f f7 23 7f 3f 57 cb 80 3f 83 bb 7d 3f
       0.98945814 0.99664253 1.0062054 0.99114245
0000d0 b6 24 7d 3f a3 ea 7d 3f 1f fc 7f 3f 39 21 80 3f
       0.9888414 0.9918615 0.9999408 1.0010139
0000e0 2b c1 7d 3f 56 f5 7d 3f db e6 7c 3f a3 7e 7d 3f
       0.99122876 0.9920248 0.9878976 0.9902136
0000f0 40 7e 7f 3f 2d 00 7f 3f ea 54 7c 3f c8 6c 7d 3f
       0.9980202 0.99609643 0.9856707 0.9899411

bias f4 [64]
000000 3f 2a 7a 3b 55 f9 d8 38 db ed ee bb 2a 06 ad 3b
       0.0038172153 0.00010346124 -0.007291538 0.005280276
000010 27 2c 2a b8 9a 70 a4 3b f4 78 cc ba 6f 87 06 3b
       -4.057228e-05 0.005018306 -0.0015600012 0.0020527502
000020 e4 98 7b 3b 9e 6e b1 bb b8 dd 0c 3c 36 56 0a bb
       0.003839069 -0.005414798 0.008597784 -0.0021108515
000030 a7 c5 51 bb 7e a2 dd 3a 1f af 9c bb cf 19 a3 ba
       -0.003200868 0.0016909388 -0.0047816182 -0.0012443605
000040 74 f3 62 bb 3e 3c 8b 3b f8 9a 9d 3a 06 e2 4f 3b
       -0.0034629973 0.004249125 0.0012024334 0.0031720414
000050 3c bf ce ba 51 9d 06 bb 21 1e b5 3a 81 8b 96 3b
       -0.0015773545 -0.0020540545 0.0013818183 0.004594267
000060 29 f4 7d bb c2 ba d3 ba 89 0f 44 bb 08 6f 88 bb
       -0.0038750267 -0.0016153681 -0.0029916486 -0.0041636266
000070 08 31 95 3a 8f e8 25 3b bd ec b7 3b 14 70 a5 3b
       0.001138241 0.0025315618 0.005612938 0.005048761
000080 c5 c2 07 3b 9f 9a 17 3c cf c9 75 bc 4b 66 9e ba
       0.0020715457 0.009253173 -0.015001728 -0.0012084929
000090 9f 8c da 36 90 93 7b 3b c1 e2 fc ba 74 01 ba ba
       6.5132767e-06 0.0038387515 -0.0019293652 -0.0014191107
0000a0 1b 1b 94 bb 20 ef 19 3b 7f 78 f3 bb 37 eb 0c bc
       -0.004519833 0.0023488477 -0.0074301357 -0.008601001
0000b0 d6 33 17 3a 58 fc 18 3c 78 8c 91 39 73 3a 21 3c
       0.0005767917 0.009337507 0.00027761213 0.009840596
0000c0 bb 26 14 bb 02 de 84 3b 9e f0 9a 3b 1e 95 ce ba
       -0.0022606093 0.0040547857 0.004728391 -0.0015760993
0000d0 7b ff ad ba 38 c7 03 3b be 2f 16 3b 08 ae ee 3a
       -0.0013274992 0.0020107757 0.002291664 0.0018209824
0000e0 50 a6 97 3b 98 81 05 3c de 90 43 ba b5 a9 76 bb
       0.0046279803 0.008148573 -0.00074602466 -0.0037637774
0000f0 90 eb 2d 3b 24 3d 46 ba 0f d6 dc bb 0f 28 94 bb
       0.0026538111 -0.0007562211 -0.006739385 -0.004521377

running_mean f4 [64]
000000 66 6c 1f 3e cb e5 1e be 16 46 c1 bd 33 1d 5f be
       0.15568694 -0.15517347 -0.09437196 -0.21788482
000010 53 17 eb 3d 23 c9 ef 3d 87 9a b5 3d 30 d5 32 bf
       0.11479058 0.11708286 0.088673644 -0.6985655
000020 c4 a9 29 3e 12 d4 a4 3e 10 9f 5c bc 5b 3e af 3e
       0.16568667 0.32193047 -0.013465658 0.3422726
000030 5d 9e 08 3f ce 2a a4 be b3 2d 30 3e 76 4c a4 3d
       0.53366643 -0.32063907 0.17204933 0.08022396
000040 eb fc e1 be 3e ec fb bd 2c 70 1a 3e e1 94 30 be
       -0.44138274 -0.12300919 0.15081853 -0.17244293
000050 97 e7 38 3e d3 43 cd 3d 17 0b d3 be f4 75 85 3e
       0.18057095 0.10022702 -0.41219398 0.26066554
000060 f8 bb 97 3e ef 23 15 be 98 8a a2 bd 82 34 01 3e
       0.29635596 -0.14564489 -0.07936591 0.12617686
000070 c1 fb a8 3d 53 a7 14 be fe 9f a8 bd 7b 46 0a 3e
       0.08251143 -0.14516954 -0.08233641 0.13503449
000080 4b 29 df be 2e 38 a7 be cc 1a 30 3e d3 86 1b 3b
       -0.43586192 -0.3266005 0.17197722 0.0023731485
000090 ea 93 8f be f7 b8 84 be 49 92 7b 3e fb 94 5a 3e
       -0.28042537 -0.25922367 0.24567522 0.21345894
0000a0 98 cb ac bd 27 ab 3c be 81 69 22 be 60 f5 fb 3e
       -0.0843727 -0.18424664 -0.15860559 0.49210644
0000b0 67 4a 05 bf dd e3 81 bd 6a 59 04 3e fb 5b ae be
       -0.52066654 -0.063422896 0.12924734 -0.3405455
0000c0 9e b0 95 be 8d 0a b8 be 00 40 b0 3e 27 16 0f 3e
       -0.2923631 -0.3594555 0.34423828 0.13973294
0000d0 68 2d 08 be 2e fa c2 be 1f 32 ad bd 53 d0 2c be
       -0.13298571 -0.38081497 -0.084568255 -0.16876344
0000e0 d8 d1 8d be c0 8c cb 3e 0f 77 7e be d6 9d 9f 3b
       -0.2769916 0.3975582 -0.24850105 0.0048711104
0000f0 c7 96 9d be 08 dd c5 3e 41 17 da 3e 10 e7 0e 3d
       -0.30779096 0.38645196 0.42595866 0.034888327

running_var f4 [64]
000000 5a f6 d3 3d 1b 2d 06 3e 2a 3b 4e 3e 7d ab 0e 3e
       0.10349722 0.13103144 0.20139757 0.13932605
000010 62 ce f3 3d 4b 59 15 3e 16 21 22 3e 33 08 f7 3d
       0.11904599 0.14584844 0.15832934 0.12062111
000020 aa 60 3a 3e 04 87 41 3e 8a 53 1c 3e 00 55 02 3e
       0.18200937 0.1889916 0.15266243 0.12727737
000030 49 3c d5 3d dd 7e e5 3d 83 58 40 3e 32 f7 43 3e
       0.10411889 0.11205838 0.18783765 0.19137266
000040 8b 4c 3c 3e 09 c0 fa 3d 77 a0 cf 3d 30 48 0c 3e
       0.18388574 0.12243659 0.10138028 0.13699412
000050 0f 96 02 3e a2 c8 06 3e 9a 0a 1e 3e 47 1a 81 3e
       0.12752555 0.13162473 0.15433732 0.2521536
000060 24 ef 31 3e aa 2d b6 3d d1 e4 30 3e e0 ad d7 3d
       0.17376381 0.088954285 0.17274787 0.10531211
000070 9c 1c e9 3d 6b dc 30 3e 16 ea 12 3e 82 34 2f 3e
       0.1138241 0.17271583 0.14347109 0.17109874
000080 39 6f d0 3d 14 ac fa 3d b9 55 28 3e d8 d4 15 3e
       0.10177464 0.122398525 0.1643895 0.14631975
000090 28 37 3b 3e a5 67 20 3e 70 99 0e 3e 92 db bb 3d
       0.18282759 0.15664537 0.1392572 0.09172739
0000a0 a3 25 f6 3d 1f 2a 1b 3e 9f 24 14 3e f8 78 24 3e
       0.120188974 0.15152787 0.14467095 0.16061771
0000b0 1f 29 d1 3d ad 41 0a 3e d3 87 18 3e e1 07 26 3e
       0.10212921 0.13501616 0.14895563 0.16213943
0000c0 81 c8 72 3d 36 82 e4 3d f8 df 01 3e d8 c8 49 3e
       0.059273247 0.11157648 0.12683094 0.19705522
0000d0 a1 e2 01 3e 43 d5 0f 3e ef 23 08 3e ab 3a 24 3e
       0.12684108 0.14046197 0.13294958 0.16038005
0000e0 4d 1f 20 3e d2 37 18 3e 9d b5 be 3d ae 59 05 3e
       0.1563694 0.14865044 0.09311984 0.13022491
0000f0 85 72 e0 3d 0a ba 17 3e 7f b0 41 3e 01 04 f1 3d
       0.10959343 0.14817062 0.18914984 0.11768342

weight f4 [128, 64, 3, 3]
000000 a7 58 f5 b9 ae 6e 05 3c 98 18 00 bd bf a5 06 bc
       -0.00046796093 0.008144064 -0.031273454 -0.008218228
000010 28 1f 11 bd cd 66 b0 3c ae f1 0e 39 a2 fe 00 3d
       -0.035430104 0.021533394 0.00013632208 0.031492837
000020 94 7e 31 3c 99 33 09 bd 29 c9 a5 bc c0 b8 22 bd
       0.010833401 -0.033496473 -0.020237522 -0.039726973
000030 b4 49 dc bc 5d 33 55 bc 9e 8e 5a 3b b8 f8 1f bc
       -0.026890613 -0.013012734 0.0033349167 -0.009763889
000040 97 8d 98 bc a2 a1 3a 3c 81 96 0a bd c9 25 cd 3b
       -0.018622203 0.011391075 -0.033834938 0.006260608
000050 44 b0 94 bc c8 ff e3 3c 76 96 eb 3c 77 78 c6 3c
       -0.018150456 0.027831927 0.028758269 0.024227364
000060 f9 2f 65 3c 50 c6 7d bb d6 f6 00 bd 2a ea e2 3c
       0.013988488 -0.003872294 -0.0314854 0.027699549
000070 21 03 99 bc 8b a1 e3 ba 0c a3 50 bb 10 99 8c 3c
       -0.01867825 -0.0017366869 -0.0031835465 0.01716283
000080 c2 8b 9b 3c 74 5c 0a 3d ea f3 ff 3b 6a 51 b9 bc
       0.01898754 0.033779576 0.0078110592 -0.022621829
000090 1f f6 e5 bc 66 bb 79 3b f2 29 c9 3c 43 cd 39 bd
       -0.028071461 0.0038106083 0.024556134 -0.04536177
0000a0 e5 20 59 bc a6 a5 92 3c d5 53 e1 3c a3 24 da bc
       -0.013252472 0.017901253 0.027505795 -0.026628798
0000b0 19 49 bf bc 00 21 61 3c 8b 2a 20 3d 11 83 c5 bb
       -0.023350285 0.013740778 0.039103072 -0.006027587
0000c0 ea ba 2e 3b 93 10 d0 bc 8e 17 08 3d 0a 8f 19 bd
       0.0026661702 -0.025398528 0.03322559 -0.03748993
0000d0 09 f7 96 bc 18 d4 d7 b9 0a 04 f0 bc 79 57 08 3d
       -0.018428342 -0.00041166018 -0.029298801 0.033286545
0000e0 89 76 49 bc fe c5 31 3c 24 f2 87 3c 43 e0 b2 bc
       -0.012296327 0.010850428 0.016594954 -0.021835452
0000f0 35 4e bc bc de 0f 1a 3d 95 ec b3 3a 8e a0 49 3c
       -0.02298651 0.03761279 0.0013727123 0.012306346
000100 91 ba 9d 3b 19 22 14 3b 51 91 00 bd a8 8b 0a bd
       0.0048135 0.0022603332 -0.031388585 -0.033824593
000110 ca 9e 14 bd 4b fd e1 3b 83 71 17 bc f0 a3 10 3c
       -0.036284246 0.00689665 -0.009243372 0.008828148
000120 b2 f5 81 3b 8c ac 2f bd 52 e6 2b 3d bb a7 85 bc
       0.0039660567 -0.042889163 0.041967697 -0.016315332
000130 c4 d2 3f bc dd 86 fe bb 69 ab 79 3c 84 b6 06 3d
       -0.011707965 -0.007767542 0.015238621 0.032888904
000140 c1 31 14 bc 26 e9 06 bd db 58 26 3c 85 ba 06 3d
       -0.009045065 -0.03293719 0.010153021 0.032892723
000150 e4 ed ca bc 35 22 72 3b 09 c1 d1 bc 1e bc e3 3b
       -0.024771638 0.0036946659 -0.025604742 0.0069499156
000160 30 5d 8a 3b 8d 29 57 3c 53 93 86 3c 35 e4 09 3d
       0.0042225346 0.013132465 0.016427672 0.0336649
000170 1a ad c1 3c 65 63 1c 3d a5 ca f9 3c bf 97 6c 3c
       0.023642112 0.038180728 0.030492136 0.014440476
000180 3e 4d b7 bc 13 65 6d bb 80 04 b4 3c 1a 41 1f 3c
       -0.0223757 -0.0036223575 0.021974802 0.009720111
000190 2a 48 2f bd cf 19 5c bb 0e 18 cd 3c 04 83 ac 3c
       -0.04279343 -0.003358472 0.025035884 0.021058567
0001a0 30 e0 97 bc a3 ef c6 3c 08 b0 83 3b c2 42 92 3c
       -0.018539518 0.02428419 0.0040187873 0.017854098
0001b0 e9 03 0b 3d f6 61 0d bd 56 4a 28 3d 0f 6b 00 bd
       0.033939276 -0.03451725 0.041086517 -0.0313521
0001c0 56 49 07 3c df 6d 50 3c 8b 6d 0b 3d ed 96 6e 3c
       0.008257231 0.012721508 0.034040015 0.014562351
0001d0 e1 ca 21 bd 32 34 ce bc 11 39 f1 ba ee 85 53 bc
       -0.03950012 -0.025171373 -0.0018403848 -0.012910349
0001e0 7e 69 01 3d 2c e8 01 3d 19 e7 c4 bc 5e 16 a5 bc
       0.031594746 0.031715557 -0.024035977 -0.020152267
0001f0 dc 63 20 3c 2d 84 97 bc e4 a4 a6 3c 5c fd a9 3c
       0.009789433 -0.018495644 0.020342298 0.020750694
000200 9a 26 4c bc 18 75 e0 bc 2d d6 a0 bc b6 f7 03 bb
       -0.012460375 -0.027399585 -0.019633377 -0.002013666
000210 4c 10 e7 bc e0 b6 60 39 35 06 19 3d 69 d8 02 bd
       -0.028206013 0.00021430431 0.037359435 -0.031944666
000220 c7 79 62 3c ad e5 05 3c 5d dc b3 3c 0d 5c 6a 3b
       0.013822979 0.008172435 0.021955663 0.0035760433
000230 ea d9 f2 3c 0b f4 b9 bc 9c e6 1b bd cb 79 7d bc
       0.029644925 -0.022699377 -0.038061723 -0.015470932
000240 0d 9d cc bc 67 16 0f b9 71 76 0e bc 5c 4a b1 3b
       -0.024977231 -0.00013645888 -0.008695231 0.0054104757
000250 9f 58 68 3c 2b 29 4c bb 77 eb b4 3c c3 5e 2b bd
       0.014181285 -0.0031152468 0.022084935 -0.04183842
000260 1a c7 03 bd 4b ab 1b 3c 0a 7c b9 bc b0 bf cf 3c
       -0.0321723 0.009501289 -0.022642154 0.025359958
000270 f4 dc f3 3c d5 cd c5 bc c9 1f 1e 3d a4 2f 85 3c
       0.029768445 -0.024146 0.03860453 0.016258068
000280 57 2e ab 3c cb 29 0e bd b3 0d f8 bc 5a 34 2f 3b
       0.02089612 -0.034707826 -0.03027997 0.0026734085
000290 48 87 1a bd 39 05 11 bc 5f 34 fd bc f8 6f 76 bb
       -0.03772667 -0.008851343 -0.030908762 -0.003760336
0002a0 c5 eb 1a 3c b4 05 74 ba 73 13 76 bb 08 99 bc bb
       0.009455626 -0.0009308711 -0.0037548214 -0.0057555474
0002b0 1d f7 18 3d 02 ca 71 bc 0d d0 b2 3c 73 5d 9b 3c
       0.03734504 -0.014757635 0.021827722 0.018965458
0002c0 2a eb 27 3d a2 1a 59 3c 5c 95 e5 bc 35 a5 b2 3c
       0.040995754 0.013250979 -0.028025322 0.021807292
0002d0 36 65 04 bc dd cb 1f bd 45 c4 8a 3c fb 40 c6 3c
       -0.008080771 -0.03901278 0.016939292 0.024200907
0002e0 f3 6d 22 bd 58 ff 22 bd c3 69 eb bc be a2 36 bd
       -0.039655637 -0.039794296 -0.028736955 -0.044588797
0002f0 6f 05 f2 bc 3c ff e7 bb ff dd 08 bc e2 2f cc 3b
       -0.029543607 -0.007079987 -0.008353709 0.006231294
000300 0a 58 e0 3c cd 36 90 bc c1 a8 72 bc e2 f9 6c bc
       0.02738573 -0.017604256 -0.014810742 -0.014463874
000310 f0 4f 46 bb 4f 3b 17 bd 42 95 b6 3b 49 d5 a4 bc
       -0.0030260049 -0.036921795 0.005571992 -0.020121234
000320 f9 a8 c0 bc 8c 78 1c 3d f4 42 c3 3c 4e bb 03 3d
       -0.023518072 0.0382009 0.023835637 0.03216105
000330 65 36 27 3c ce 67 0e ba 27 56 f6 3c 3b 38 42 bd
       0.01020584 -0.0005432338 0.030070378 -0.047416907
000340 f0 1e 0a bd 6a 03 ac 3c 66 14 ca bb 95 2a fb 3c
       -0.03372091 0.020997722 -0.0061669825 0.030659953
000350 b0 3f 01 bc 50 fb f8 bc 37 3f 03 bd 9b 26 bc 3c
       -0.007888719 -0.030393273 -0.03204271 0.022967627
000360 a4 c9 2b bd 37 78 2c bd 8d 13 a4 bc 2b dc f5 3b
       -0.041940346 -0.042106833 -0.020028854 0.0075030527
000370 39 eb 5a 3b af 61 b4 3c f5 94 c4 bc 99 b0 51 bc
       0.0033404364 0.022019235 -0.02399681 -0.012798452
000380 8c ea 07 bd 2c a3 91 3c 85 22 d3 bc 28 4e a8 3c
       -0.033182666 0.017778002 -0.025773296 0.02054508
000390 d9 76 b2 3c 24 a6 3d bc 5f 02 fa 3b 99 09 9d bc
       0.021785187 -0.011575256 0.007629677 -0.019169616
0003a0 77 e5 bf 3c b5 47 27 bd 2c c8 c7 3c 5f 88 13 bc
       0.023424847 -0.04083987 0.024387442 -0.009004681
0003b0 2e 32 9d 3c 0e 81 84 3c c1 ee fd bb 9b 06 e5 3c
       0.019188967 0.01617482 -0.007749409 0.027957251
0003c0 aa 86 cb bb 76 4f 83 bc ab b6 e4 3c 94 d6 7c 3b
       -0.0062111216 -0.0160291 0.027919134 0.0038580047
0003d0 0d cb d4 bc 85 cd 1a bd f5 61 bf bc ed 46 49 bd
       -0.025975728 -0.037793655 -0.02336214 -0.049139906
0003e0 dc d3 43 3c a0 86 27 3c 28 40 c6 3c 2e 0d 63 3c
       0.011952367 0.010224968 0.024200514 0.013858123
0003f0 93 33 0e 3d cc 0c 2b bd 3d 1e c5 bc 2a 6a e4 bc
       0.034717154 -0.04176025 -0.02406227 -0.027882654

bias f4 [128]
000000 ec d7 19 3d 99 6e 39 3c 81 fa 4c 3c bb f3 a4 3c
       0.037559435 0.011317872 0.012510897 0.020135751
000010 9e 65 06 bd d9 20 0f 3c 73 c8 dc bc 00 d9 11 3d
       -0.032811753 0.008735859 -0.02695105 0.035607338
000020 4f c5 20 3c b4 6b 19 3c 06 4d 68 bc 34 8b a5 3c
       0.009812667 0.009364057 -0.01417852 0.020207979
000030 04 02 99 bc 87 ba c8 bc 1f 58 c8 3b 27 7f 40 3b
       -0.018677719 -0.024503006 0.0061140205 0.0029372664
000040 1a a9 07 bc 82 69 21 bc 7f 8b de 3c a2 94 57 bc
       -0.008280063 -0.009851815 0.027166126 -0.013157995
000050 f9 b5 18 3d 5c a0 28 3d d5 e4 ea 3c 56 aa 90 bc
       0.037282918 0.041168556 0.028673569 -0.017659348
000060 5c 0b f6 bc bf df 92 bc ce 45 43 bc a1 d6 1f bd
       -0.030034713 -0.017928956 -0.011918498 -0.039023045
000070 44 a1 66 3a c6 31 bc 3c 12 69 21 bd ce b9 06 bd
       0.0008797834 0.022972953 -0.039406843 -0.03289204
000080 8c b8 db 3c 16 35 19 bc b2 5c 97 3b 91 53 f5 3b
       0.026821397 -0.009351036 0.0046192044 0.0074867685
000090 1e 7a d3 bc f2 bb 6e 3c 7e f8 da 3a cc 33 b8 bc
       -0.025815066 0.014571177 0.0016706137 -0.022485636
0000a0 47 61 14 3d 59 97 5a 3c f1 7e ef bc 75 32 d7 3c
       0.036225583 0.013341748 -0.029235335 0.026269177
0000b0 4e 5f 05 bd 98 cc fa bc ce 01 b9 38 b4 75 b4 bc
       -0.032561593 -0.030615136 8.8218236e-05 -0.022028781
0000c0 66 c5 23 3d 98 98 72 bc 32 e8 5a bc 45 90 02 bd
       0.039983176 -0.014806889 -0.013361024 -0.031875867
0000d0 d3 85 a3 3c 3e 5a e5 bc 33 9d 00 3b ca 50 b3 bc
       0.019961273 -0.027997132 0.0019624948 -0.02188911
0000e0 6c df 04 3d db 35 73 bc ea d1 3c bc 65 44 8a 3c
       0.032439634 -0.014844383 -0.011524657 0.016878316
0000f0 67 61 bd 3c ad 15 aa bc ab 06 9d 3c 5b c5 21 3d
       0.023117734 -0.020762289 0.019168219 0.039494853
000100 a0 31 9e bc 87 29 8b 3c f6 13 76 3a 55 d6 c4 bb
       -0.019310772 0.016987575 0.00093871297 -0.0060069957
000110 1e d6 45 3b 07 9f c7 bc 10 6d 46 bc e3 96 ec bc
       0.0030187438 -0.024367822 -0.012110963 -0.028880542
000120 59 f6 ec 3c 04 e3 c2 3c eb c0 09 bd 4f 85 21 3d
       0.028926061 0.02378989 -0.033631247 0.039433774
000130 ce f3 1e bd 71 49 14 bc f6 46 9e bc 60 2f dd 3c
       -0.03880673 -0.009050713 -0.019320946 0.02700013
000140 c3 f3 8c 3c 77 1b 21 bd 99 00 27 3d 70 1c ef ba
       0.017206078 -0.039332833 0.040772054 -0.0018242728
000150 cf 16 14 bd 89 f8 20 3d 81 66 d2 3c 90 48 a1 3c
       -0.036154564 0.03929952 0.025683643 0.01968792
000160 aa a4 17 3d 0f 12 87 3c 58 c6 11 bd 1d f2 38 3c
       0.03702227 0.016488103 -0.035589546 0.011288193
000170 b6 2c 9e 3c 4e dd 47 bc 5a 93 d4 bc f3 48 eb bc
       0.01930843 -0.012198759 -0.025949169 -0.028721308
000180 05 06 a1 bc f0 bd 6c 3b 30 02 15 3d 54 e2 da 3c
       -0.01965619 0.0036123954 0.03637904 0.02671925
000190 ff 7a c6 bc de eb 01 bc 0b b0 d1 3c c2 ab e9 bb
       -0.024228571 -0.00792977 0.02559664 -0.007131071
0001a0 a0 db cc 3b dc 5e b1 bc 41 3f c4 bc b4 53 a1 bc
       0.0062517673 -0.021651678 -0.023955943 -0.019693233
0001b0 48 78 00 3d c2 a7 38 bc 34 d0 8e bc e7 94 e1 3c
       0.03136471 -0.011270465 -0.017433263 0.027536822
0001c0 67 a3 86 bc af 1d ca bc 21 87 d0 bc 17 fa 25 bd
       -0.016435338 -0.024672357 -0.02545506 -0.040521707
0001d0 9b 57 8c bc 9e 16 86 bc c7 ef ec ba 78 c5 f1 3c
       -0.017131617 -0.016368207 -0.001807683 0.029513106
0001e0 89 40 16 3d 14 ca da bc 1e 2a 23 bd 98 18 05 3b
       0.03668264 -0.026707686 -0.039835088 0.0020308848
0001f0 69 49 8b bc fa 01 00 bc 6a ff ed bc 09 a3 d5 3b
       -0.017002778 -0.007812971 -0.029052455 0.0065196794

weight f4 [128]
000000 c5 d9 7c 3f d2 61 7e 3f 6e 17 7e 3f 30 4f 7d 3f
       0.9876979 0.9936801 0.992545 0.98948956
000010 29 07 7d 3f ce 00 7d 3f 1d 62 7d 3f 7b f3 7e 3f
       0.9883905 0.9882935 0.98977834 0.9959027
000020 18 d1 7c 3f 55 6e 7e 3f 11 be 7e 3f d8 1b 7e 3f
       0.9875655 0.99387103 0.9950877 0.99261236
000030 ee a3 7c 3f 49 d7 7d 3f ab 3a 7d 3f ce 77 7d 3f
       0.98687637 0.99156624 0.98917645 0.9901093
000040 27 c1 7e 3f 3a e9 7d 3f fa 6c 7d 3f cf c0 7d 3f
       0.9951348 0.99184 0.9899441 0.9912233
000050 ff 53 7d 3f 28 71 7e 3f 06 28 7d 3f 35 c2 7d 3f
       0.9895629 0.9939141 0.98889196 0.9912446
000060 86 87 7d 3f c9 03 7e 3f be 76 7c 3f fa 7b 7e 3f
       0.9903492 0.99224526 0.98618686 0.99407923
000070 29 69 7e 3f a5 2c 7e 3f 16 c8 7c 3f 3f 36 7e 3f
       0.9937921 0.9928687 0.98742807 0.9930152
000080 00 72 7e 3f ea 4b 7e 3f 4d 04 7f 3f b6 60 7d 3f
       0.993927 0.99334586 0.9961594 0.98975694
000090 92 c0 7d 3f 05 2a 7e 3f 2b c1 7d 3f 9b 13 7e 3f
       0.99121964 0.99282867 0.99122876 0.99248666
0000a0 52 11 7d 3f d4 b9 7d 3f b1 88 7d 3f 19 97 7e 3f
       0.98854554 0.99111676 0.990367 0.99449307
0000b0 8c 46 7e 3f 50 13 80 3f bd 0f 7e 3f 75 3b 7d 3f
       0.99326396 1.0005894 0.99242765 0.9891885
0000c0 2c b7 7d 3f 04 68 7d 3f 63 b2 7e 3f 95 61 7d 3f
       0.99107623 0.9898684 0.99490947 0.98977023
0000d0 fc ef 7d 3f 20 b2 7d 3f 74 7e 7d 3f 35 17 7d 3f
       0.9919431 0.9909992 0.9902108 0.98863536
0000e0 2a 88 7e 3f 24 3f 7d 3f 28 2f 7e 3f 04 ba 7d 3f
       0.9942652 0.9892447 0.99290705 0.9911196
0000f0 0b 4b 7d 3f c1 74 7e 3f b0 61 7d 3f 6a 7d 7d 3f
       0.9894263 0.993969 0.98977184 0.9901949
000100 f2 40 7e 3f c0 09 7e 3f ab 40 7d 3f 59 ed 7e 3f
       0.9931785 0.9923363 0.989268 0.99580914
000110 de 8b 7e 3f 06 fd 7e 3f 91 b5 7d 3f 04 82 7d 3f
       0.9943217 0.99604833 0.99105173 0.99026513
000120 0d 9e 7d 3f e8 47 7e 3f cf 8a 7c 3f 7c 63 7f 3f
       0.9906929 0.9932847 0.98649305 0.99761176
000130 cd 17 7e 3f ac f9 7d 3f 8d 1e 7d 3f 51 e2 7d 3f
       0.9925507 0.99209094 0.9887474 0.99173456
000140 99 7a 7e 3f 30 5a 7d 3f 3e 4c 7e 3f b7 dc 7c 3f
       0.9940582 0.9896574 0.99335086 0.98774284
000150 ac 66 7d 3f 2f 68 7d 3f ae 3c 7d 3f 3d 50 7d 3f
       0.9898479 0.98987097 0.98920715 0.9895056
000160 c6 ba 7d 3f 13 fb 7c 3f 02 7b 7d 3f a3 ca 7e 3f
       0.9911312 0.9882061 0.9901582 0.9952795
000170 12 31 7e 3f 21 0f 7f 3f 45 d0 7d 3f a4 ee 7d 3f
       0.99293625 0.9963246 0.9914592 0.9919226
000180 f0 f9 7e 3f a4 61 7d 3f 0e 70 7e 3f 99 21 7e 3f
       0.99600124 0.9897711 0.9938973 0.99270016
000190 6a 26 7e 3f 96 51 7f 3f db fa 7d 3f c9 b8 7d 3f
       0.99277365 0.99733865 0.992109 0.99110085
0001a0 ae 22 7e 3f 5a 78 7e 3f 45 b9 7d 3f a3 36 7d 3f
       0.99271667 0.9940239 0.99110824 0.98911494
0001b0 aa 35 7d 3f 7a 0b 7d 3f 2b c6 7d 3f 45 19 7d 3f
       0.9891001 0.98845637 0.99130505 0.98866683
0001c0 28 cc 7c 3f ba 9e 7c 3f b7 b8 7d 3f f7 3f 7d 3f
       0.9874902 0.986797 0.9910998 0.9892573
0001d0 80 51 7d 3f 43 6d 7d 3f 89 02 80 3f bd 99 7e 3f
       0.98952484 0.98994845 1.0000774 0.99453336
0001e0 c4 79 7d 3f 0f 8f 7d 3f 00 d0 7e 3f 5a d5 7f 3f
       0.99013925 0.99046415 0.9953613 0.99934924
0001f0 88 e4 7e 3f bf be 7e 3f b3 e9 7d 3f 0b a2 7e 3f
       0.9956746 0.99509805 0.9918472 0.9946601

bias f4 [128]
000000 b6 a7 b2 b9 2d e4 7e 3a c4 7b ae b9 12 98 d8 b8
       -0.0003407576 0.0009723332 -0.0003328008 -0.00010328008
000010 e7 4e 0e bb 9c dd 0b ba 3f 06 1d ba 77 55 5c bb
       -0.002171451 -0.00053354516 -0.00059900054 -0.0033620277
000020 ef 6a 9a ba b7 f5 e9 b9 9a 19 af 3b 6d df ff 3a
       -0.0011781136 -0.00044624295 0.005343628 0.0019521542
000030 46 a7 0e ba 89 9b 63 b8 3b 11 37 bb 19 95 69 bb
       -0.0005441796 -5.426587e-05 -0.0027933854 -0.0035641848
000040 7b 76 82 3b 65 78 0d ba 4b f1 8d ba 37 5e bd 3a
       0.003981409 -0.00053966633 -0.0010829357 0.0014447634
000050 91 3a 5f 3b 3c 1a 66 bb 7b 8a 89 b9 d2 95 ac 39
       0.0034062008 -0.0035110852 -0.00026233852 0.0003291802
000060 a0 79 54 ba e5 1a 80 3a 12 6d f0 b7 af ef 18 ba
       -0.0008105282 0.000977364 -2.866102e-05 -0.00058340555
000070 f6 d2 6e 39 2b a1 73 bb 55 e4 37 ba 58 19 ec ba
       0.00022776038 -0.003717492 -0.000701492 -0.0018012924
000080 a9 01 f8 3a 89 0c 1d bb 92 00 26 3a 15 3a e0 bb
       0.0018921393 -0.002396377 0.00063324824 -0.0068428614
000090 6d 20 9c 37 07 f2 b1 ba f6 06 ea ba 5b 9c 18 3a
       1.8611749e-05 -0.0013576158 -0.0017854858 0.00058216386
0000a0 07 36 e0 ba d4 b9 15 bb 5b d6 15 39 dc a0 b8 b9
       -0.0017105945 -0.0022846358 0.00014289601 -0.00035215064
0000b0 d0 7e 24 ba 36 12 3c 3b e2 3f b6 ba d8 ad 1d bb
       -0.0006275 0.0028697378 -0.0013904537 -0.0024059918
0000c0 2b 73 2f b9 c9 f2 a3 bb d7 77 b0 b9 b7 c9 5e ba
       -0.00016732204 -0.0050033075 -0.00033658624 -0.0008498686
0000d0 dd d3 26 bb b9 31 2b bb aa ba 0f b9 00 68 b2 ba
       -0.002545587 -0.0026122166 -0.0001370708 -0.0013611317
0000e0 c8 5f 17 3b 8d ff 1d bb 7d b5 81 b9 c7 7e 42 b9
       0.0023097862 -0.002410862 -0.00024740017 -0.0001854851
0000f0 e1 78 f5 b9 32 33 5f 3b 6a 5b 02 bb ee f1 1a bb
       -0.00046820103 0.0034057614 -0.0019890913 -0.0023642736
000100 c3 78 7c bb 03 e3 be 38 01 de 3d ba 2a 06 14 39
       -0.0038524128 9.10219e-05 -0.0007242859 0.00014116676
000110 5f 04 42 ba fc dd 69 ba e2 88 39 ba f7 90 16 bb
       -0.0007401164 -0.0008921323 -0.0007077587 -0.002297459
000120 eb 8b ac bb bf c9 0f 3b c2 4b 6b 3a d0 41 90 3b
       -0.005265703 0.0021940318 0.00089758274 0.0044023767
000130 26 97 cb 3a 70 13 08 3b ef fe 2a bb d8 76 a4 3b
       0.0015532717 0.0020763539 -0.0026091894 0.00501905
000140 1e 58 44 bb ab dc 22 bc e2 71 e5 3a 25 1d fe ba
       -0.0029959748 -0.009940307 0.0017505253 -0.0019387348
000150 df 7a a5 3a ed 6b e8 39 71 ef 04 ba 5e e8 34 ba
       0.0012625119 0.000443309 -0.000507108 -0.00069010805
000160 9d 61 c7 3a 0e d6 e5 39 72 a2 af b9 c6 04 b9 39
       0.0015211586 0.00043837767 -0.00033499632 0.00035289506
000170 37 fc 92 3a ae 3e cf 3a e6 b8 bc 3a 5f 94 0c bb
       0.0011214082 0.0015811527 0.0014398366 -0.002145074
000180 c5 37 85 bb 82 a3 35 3b ba 25 11 3b 91 ef 06 ba
       -0.004065486 0.0027715866 0.002214773 -0.00051473925
000190 db 2f 64 bb 9a 9a 7c 3b c4 df b1 3a fc 36 dc 3a
       -0.0034818563 0.0038544298 0.0013570716 0.0016801055
0001a0 05 83 c8 3b 71 a9 b3 3a 73 1b 0c bb c2 0b d3 b9
       0.0061191344 0.0013707114 -0.0021378666 -0.00040253816
0001b0 6a 09 21 bb bc a2 b9 3a 3a 21 7f b9 28 3e 9e bb
       -0.0024572262 0.0014162879 -0.00024331073 -0.004829187
0001c0 0f 7c 7e ba 67 54 5a bb 7d 73 47 bb c2 e5 ac ba
       -0.0009707817 -0.0033314468 -0.0030433827 -0.0013191032
0001d0 02 01 b3 ba 20 f9 e0 b9 01 fa 93 3b 1a 31 25 3b
       -0.0013656917 -0.00042910222 0.004515887 0.0025206269
0001e0 86 27 92 3a 96 70 ca ba dd b5 3f ba 77 b9 da 3b
       0.0011150695 -0.001544493 -0.00073131715 0.006674941
0001f0 3c 2c b5 3b 4d e6 a1 39 2f 29 e5 3a f3 c4 39 bb
       0.005528955 0.000308799 0.0017483587 -0.002834615

running_mean f4 [128]
000000 41 24 35 be 3a bd f5 3c b2 bf 88 be 0d ef 1c 3c
       -0.17689611 0.029997457 -0.26708752 0.0095784785
000010 04 da 07 3e 29 cf ef be 7d ca ed 3a e5 85 34 3f
       0.1326676 -0.46837738 0.0018142011 0.70516807
000020 32 fd 27 be 18 87 0f 3e a2 a4 66 be 8e 08 43 bd
       -0.1640518 0.14016378 -0.2252374 -0.04761558
000030 b8 26 a7 be ab bb 23 be f3 ac 9a bd cc 9f f5 3e
       -0.32646728 -0.15989558 -0.07552519 0.47973478
000040 4b ad d9 be 68 aa 9d 3d 23 27 9c 3e 8c 17 54 be
       -0.42515025 0.07698518 0.3049861 -0.20712107
000050 4a 7b 8d 3e 2b b5 8f 3e e7 bb 44 be ec 25 4e 3d
       0.27633125 0.28067908 -0.19212304 0.050329134
000060 3a 7d a2 bd bd 20 66 be 9b fb 2c 3d 5e a5 33 3e
       -0.07934041 -0.22473426 0.042232137 0.17543551
000070 55 55 d8 3e 2f ac 53 3c 1a 3c b7 be ca b5 84 bd
       0.42252603 0.01291947 -0.3578804 -0.06479986
000080 60 e6 b6 be 2c 3c c8 3d c1 2f 61 3e 97 de 9a 3e
       -0.35722637 0.09777102 0.21990873 0.30247948
000090 0e 50 23 be 69 b4 e7 3e ba 64 ed 3e 96 6e 67 3e
       -0.15948507 0.4525483 0.4636591 0.22600779
0000a0 d2 f0 20 3f 08 95 fc bd fd 4f 32 3f 89 0b eb 3e
       0.6286746 -0.12333113 0.696533 0.45907238
0000b0 19 1e bf 3a a6 9f ff 3e 12 4e 05 3e c3 44 d0 3e
       0.0014581113 0.4992649 0.13018063 0.4067746
0000c0 e0 43 c6 bd 87 71 11 3e 61 92 cb be 08 93 dc bd
       -0.09680915 0.14203463 -0.39760116 -0.107702315
0000d0 69 b7 3f 3f dc 46 d2 3d 4d 3a 67 3e 60 c7 e8 be
       0.74889237 0.102674216 0.22580834 -0.4546461
0000e0 8a 3c 84 be 4a 2d e1 3b d4 32 32 be c6 c4 9f be
       -0.25827438 0.006871854 -0.17402202 -0.31204814
0000f0 85 9b b8 bc 2c 51 e5 be 83 8d e5 3e 35 c0 fc 3e
       -0.022535095 -0.44788492 0.44834527 0.49365392
000100 6c b1 e7 3e 94 73 2a 3c 52 7a a1 3e c7 07 4c 3f
       0.4525255 0.010403533 0.31538635 0.7969937
000110 15 2b fa 3e dc 64 c5 3d 14 6a a1 bd d3 fb bc 3c
       0.48860994 0.09638378 -0.07881561 0.023069298
000120 02 91 4d 3f bf 8e d4 be d1 76 0c 3e 83 8a ff bc
       0.8029939 -0.41515157 0.137172 -0.031193977
000130 46 8b bb 3d 11 ba 65 be 0f 3a 70 bd 30 19 90 3e
       0.09157424 -0.2243426 -0.05864912 0.28144217
000140 62 75 c1 3e 04 78 c8 3c 44 95 68 be 43 86 10 be
       0.37784868 0.02447129 -0.2271319 -0.14113717
000150 3f 36 ca be 13 e4 2f 3e c1 2e ef be 84 a6 9e bb
       -0.3949451 0.17176847 -0.46715358 -0.0048416276
000160 a6 69 26 bd 45 41 20 3d 59 15 22 bd cf b5 05 3f
       -0.040628098 0.039124746 -0.03957114 0.5223054
000170 58 d0 a8 3e df a0 d8 be b0 27 b7 be 03 d2 5e be
       0.32971454 -0.42310235 -0.35772467 -0.217598
000180 74 3b 4d 3f a7 25 a0 3e 5e cd 91 3d 34 dd df 3e
       0.80168843 0.31278726 0.07119249 0.43723452
000190 7c 1b e3 3e bd 95 28 be 08 c2 bd 3d 8a 5d 9c bd
       0.44356906 -0.1646337 0.09265524 -0.07635029
0001a0 3c f8 f6 3d e3 6a 4a 3e c0 e7 d4 be 68 07 56 3d
       0.12059066 0.19767337 -0.4158306 0.052253157
0001b0 97 89 96 3d 83 1b b9 bd b9 76 8d 3d 57 54 76 3e
       0.07350462 -0.090384506 0.0690741 0.2405561
0001c0 19 ec e0 3d 13 c6 63 be fb 5b ca 3e d0 ab e9 3d
       0.10982532 -0.22243528 0.395233 0.11409724
0001d0 3c 13 ca 3e 12 19 88 bc 74 63 23 3e 8d d6 a6 3e
       0.394678 -0.016613517 0.15955907 0.32585564
0001e0 79 1b 71 3d 11 fb 81 bd 84 2a 4e 3e 3a c3 db bd
       0.05886409 -0.06346715 0.20133406 -0.10730596
0001f0 89 9f eb be 4a 53 15 3f ba a3 c6 bd ed 1d 2f 3f
       -0.46020153 0.58330214 -0.09699197 0.6840504
