model/last_policy_value_net_2021-03-28_11-27-13.pth (torch, 496247 bytes, 30 tensors)

weight f4 [32, 7, 3, 3]
000000 28 98 03 3e c4 10 61 3c 53 52 22 bd 06 37 26 bd
       0.12851012 0.013736907 -0.03962929 -0.04057982
000010 fb 90 9c 3d 40 c5 8f 3d b9 02 49 3d e3 e6 c2 bd
       0.0764484 0.07020044 0.049074862 -0.095166944
000020 cd 0d c4 3c a6 0a b5 3c 1d c4 91 3c 1c 70 9f bd
       0.023932362 0.022099804 0.01779371 -0.07785055
000030 5d 50 a2 bd 9c 80 f8 bd fc ef af bd bb 33 d0 3d
       -0.07925484 -0.12133905 -0.08590695 0.10166117
000040 32 12 bb bd fc 04 f1 3d 13 00 8a 3a f9 fd a9 3d
       -0.0913433 0.11768529 0.0010528587 0.083003946
000050 bf c1 5b bd 10 74 a1 3d 0d 1d 01 be 3d 37 01 3e
       -0.053651568 0.07883465 -0.12608738 0.12618728
000060 2e a7 f2 3d d7 c6 34 3d 13 ae a0 bd 99 78 98 bb
       0.11848293 0.04413494 -0.07845702 -0.0046530482
000070 df 88 40 3d 1f 20 de bd af 9f 1a bc 2b 08 8e 3c
       0.04700553 -0.1084597 -0.009437486 0.01733788
000080 85 47 48 3d 5c 86 93 bd 49 2c e3 3c d8 97 cf 3c
       0.04889633 -0.072033614 0.027731078 0.02534096
000090 43 ea 41 bd b0 9a d9 bd f5 6b e8 3c 08 58 e3 bd
       -0.04734255 -0.106252074 0.02837179 -0.11100775
0000a0 57 73 72 bd 46 ad 07 3e 78 1b d4 bd f8 0d 19 3e
       -0.059192028 0.13249692 -0.10356802 0.14946735
0000b0 25 5c d0 bd 35 da 7e 3d a9 4b 34 bc a2 ae 9d bd
       -0.10173825 0.062219817 -0.011004367 -0.07699324
0000c0 24 5e 4a 3d 3b 43 d0 bd 4e 5f 95 3d 22 59 ac 3d
       0.049406186 -0.10169073 0.072935686 0.08415438
0000d0 42 65 bf 3d 1c 9f 0f 3d 2a 33 3c 3d b7 11 08 bd
       0.09345485 0.035063848 0.04594723 -0.03322002
0000e0 37 1d cc 3d 14 44 8f 3d 11 e1 a0 bd aa c5 b5 bd
       0.0996651 0.06995407 -0.07855428 -0.08875592
0000f0 1b c1 9f bd 54 91 72 bc 19 46 b7 3d ac 2c d7 3c
       -0.07800504 -0.014805157 0.08948917 0.026266418
000100 9b 77 af 3d 04 d3 9e bd 2f fc e6 3c 4c 90 a4 3d
       0.08567735 -0.07755092 0.028196422 0.08035335
000110 55 3f e1 bd be 27 70 bd f5 78 4d bd 44 80 3f 3c
       -0.10998408 -0.05863165 -0.05016418 0.011688296
000120 4e 96 7d 3d 63 25 ac 3d fd d1 d9 bd bf ab 5d bd
       0.06191092 0.084055685 -0.10635755 -0.054118868
000130 d4 05 ab 3d 54 f3 91 39 b7 b4 4b 3d 25 75 97 3d
       0.08350721 0.0002783785 0.04973289 0.073953904
000140 ab ba 83 3d f6 28 a0 3c f6 dd 8f bd 15 02 6b bd
       0.064320885 0.019550782 -0.070247576 -0.057375032
000150 2d 85 fb bd cc 30 8c 3d b4 d4 5e 3c 20 03 94 3c
       -0.12281261 0.06845245 0.013600517 0.018067896
000160 79 64 5d 3d d1 66 2d 3d f3 88 eb bb e3 9e 30 3d
       0.054050896 0.04233438 -0.0071879565 0.043120276
000170 bc 87 eb 3d 2f a3 98 3d 1f 68 91 3d 27 f8 ac bd
       0.11500499 0.07453 0.07099938 -0.08445769
000180 eb 51 fe bd 4e 3e 5d 3d ab a0 f2 3c c1 67 61 3d
       -0.12417968 0.054014497 0.029617628 0.055030588
000190 e1 07 03 3d c9 a6 84 bd 73 36 d6 bd c3 65 2e 3d
       0.031989936 -0.06477124 -0.10459604 0.042577516
0001a0 41 b4 80 bc ef eb a8 bc ae 49 30 3d be 90 9b 3d
       -0.015710952 -0.020620314 0.043039016 0.07595967
0001b0 2b 5b 99 3d 87 5b 82 bc 9a 1b 85 bd 05 05 ee bc
       0.07488092 -0.015912784 -0.06499405 -0.029055128
0001c0 4b 98 17 3e 60 10 07 3e c9 1f a7 3d e9 01 b9 ba
       0.14804189 0.1318984 0.081603594 -0.0014114949
0001d0 a6 5f b1 3d 8e 03 83 3d eb bb 7e bb 3e ad 6c bd
       0.086608216 0.063971624 -0.0038869332 -0.057782404
0001e0 df 24 4f bd 37 43 ff bd 73 02 9f 3d 31 6a 27 bd
       -0.050572272 -0.12463992 0.07764139 -0.040872756
0001f0 02 c3 2a bd ce 7f df 3b 5e ef fa 3c 4d 6d be 3c
       -0.04168988 0.0068206554 0.030631717 0.023245478
000200 ed 64 d1 3c d5 5b b7 bd 86 9d 43 3d 60 99 89 3d
       0.02556082 -0.089530624 0.047757648 0.06718707
000210 de 7f 00 3c 80 05 99 bd 0f bb 5b 3d 6a 38 fc 3c
       0.007842986 -0.07471752 0.05364519 0.03078862
000220 94 85 b0 3c 0c 2e 53 3b cd 0e 7b bd b9 90 9a 3d
       0.02154807 0.003222349 -0.061293412 0.07547135
000230 0a e5 b9 bd dc fc 85 3d 3f 4b 62 3d 07 bd 38 3c
       -0.09076889 0.0654237 0.05524754 0.011275536
000240 0f dd e3 bd 1a 02 14 bd 35 2b 87 bd da 76 be bd
       -0.11126148 -0.036134817 -0.06600038 -0.09300013
000250 6d 9e 66 bb 77 30 f4 3c f5 22 d3 b9 25 2e de 3c
       -0.0035189644 0.029808266 -0.000402711 0.027121613
000260 f9 b2 62 3d 4e 4d 95 bd fb ff 2d 3d 4b 27 86 3d
       0.055346463 -0.07290135 0.04248045 0.06550463
000270 45 34 d4 3c 90 e0 9d bd 32 2d ee bc 5f 05 eb bd
       0.02590383 -0.077088475 -0.029074285 -0.11475634
000280 2c 92 c8 3d 30 90 4b 3d 12 2a aa 3d ab d0 10 3e
       0.09793505 0.049698055 0.083088055 0.141421
000290 b7 bf e9 bd fd 0a 03 bc 94 6d 00 bd 6a ed 88 bd
       -0.1141352 -0.007998225 -0.0313545 -0.06685908
0002a0 f4 7c 74 3c b5 3b df 3c 42 65 5e bc c9 29 1c bd
       0.014922369 0.02725015 -0.013573946 -0.038125787
0002b0 5e d5 45 bd c4 5a 1a bd 39 0e d7 bd a1 b4 17 3d
       -0.048299186 -0.037684217 -0.1050076 0.037037496
0002c0 64 3a b0 bc 8e 6a 41 bd 01 6a 21 3d ef 09 00 3d
       -0.021512218 -0.04722076 0.039407734 0.031259473
0002d0 ae 6c e5 bb 9a bb 26 3d 4c 14 f7 3c 99 54 0b 3e
       -0.007001481 0.040706255 0.030161045 0.1360649
0002e0 ca fb d3 bd 67 69 7d 3d 25 e1 06 3e 38 97 06 bd
       -0.10350759 0.061868098 0.13171823 -0.032859057
0002f0 34 f6 cb 3d 0a 1f 5b 3d 5d c4 65 bd b3 6b a9 bd
       0.09959069 0.053496398 -0.05609547 -0.08272495
000300 ba cb 9e bd d1 33 7e bd 49 a1 8b 3d 49 75 b1 3c
       -0.077537015 -0.062061135 0.06817872 0.021662371
000310 a7 87 81 bd ac 50 f6 3d 21 d1 67 3b 50 aa 58 3c
       -0.06324702 0.12027106 0.0035372453 0.013224199
000320 4d be 99 3d 2c 74 cf bc 70 dd 18 bd e0 87 b4 3d
       0.07507 -0.02532395 -0.037320554 0.088149786
000330 f7 0e ad 3b 2b 1a 88 bd 44 66 0f 3d 91 16 02 be
       0.005281325 -0.06645616 0.035009637 -0.12703921
000340 4c 8e a4 3d 45 63 28 bb 60 d9 26 bc e3 ac 36 3b
       0.080349535 -0.0025693935 -0.010183662 0.0027874045
000350 57 d7 e3 bc 22 f9 a6 bd 3e 6f 43 3d f8 d4 ad bd
       -0.027812643 -0.08152987 0.04771351 -0.08487886
000360 21 bc 8b bd 1f d0 d6 bd c6 ea 1d 3e 5c dc a4 bd
       -0.06822992 -0.10488915 0.1542159 -0.08049843
000370 aa 49 62 3d ff af 11 bc c0 e5 9d 3d a1 ab b8 3d
       0.055246033 -0.008892058 0.07709837 0.090171106
000380 c4 8e 0c bd 49 4a d2 bd 3a ce 7e bd 3b 7b 2b 3d
       -0.03431584 -0.10268075 -0.06220839 0.04186557
000390 07 41 d2 3c 95 fc c9 bc dc 1b cf 3d a8 8b 0f 3b
       0.025665773 -0.024656573 0.10112736 0.002190331
0003a0 f4 51 9b bd c3 79 7a 3d 72 50 7c 3b ab e4 79 bd
       -0.07583991 0.061151277 0.0038500098 -0.06100909
0003b0 be 45 11 3e 4b 75 29 bd 2c 31 6e bd 09 b1 81 3d
       0.14186761 -0.041371625 -0.058152363 0.06332595
0003c0 b1 18 ab bd d2 67 05 be c8 88 47 bd 57 46 a2 3d
       -0.08354319 -0.13027886 -0.04871443 0.079235725
0003d0 24 57 af 3c 88 be 2e 3d fe 9e d9 bd f8 d0 26 3d
       0.021403857 0.042662174 -0.106260285 0.040726632
0003e0 e8 70 0a bb d2 bd e8 3c 3c 11 77 3d 20 fe dd 3c
       -0.0021124426 0.028410826 0.06031917 0.027098715
0003f0 fb c0 97 bc e0 d6 17 3e 71 13 e4 bc 6c 1d 8f 3c
       -0.018524637 0.14828062 -0.027841302 0.017470084

bias f4 [32]
000000 82 b7 e6 bd 80 74 43 bd 9d 3a ca bd 9a 78 a1 3d
       -0.1126547 -0.047718525 -0.09874461 0.07884331
000010 62 55 e4 bd e5 5a 8c 3d 4d 33 db bd 74 af 79 bd
       -0.11149098 0.06853274 -0.10703144 -0.06095834
000020 3e e1 a8 bc e0 bd ce 3d 06 85 12 3d a2 e2 9f 3d
       -0.020615216 0.100948095 0.035771392 0.07806899
000030 a4 77 57 bd c2 99 e3 b9 1a 16 fc bd 71 33 8d 3c
       -0.052604333 -0.00043411372 -0.12308903 0.017236443
000040 29 3c 51 bd 8d 7b 0b bb 47 32 8d bd 59 4d 66 3d
       -0.051082764 -0.0021283359 -0.06894355 0.05622611
000050 b4 fd 93 bd 92 bb a2 3d 8e fd 94 39 cc d0 8c bb
       -0.072261244 0.079459324 0.00028417673 -0.0042973515
000060 5b 08 94 3b 46 2f c3 bc 78 de 2d bc fe 89 36 bb
       0.0045175976 -0.023826253 -0.010612123 -0.0027853246
000070 5f 81 16 3d bf d3 85 3d cf b7 34 bd 8e 21 72 3d
       0.03674447 0.06534528 -0.044120606 0.05911403

weight f4 [32]
000000 39 96 7c 3f 0f 6d 83 3f 6b 24 7c 3f c7 31 7d 3f
       0.9866672 1.0267657 0.9849307 0.9890408
000010 b6 6e 7e 3f aa 56 79 3f ae 9d 77 3f 9c 7c 7a 3f
       0.9938768 0.97397864 0.96724975 0.9784639
000020 09 cf 7e 3f 74 95 7e 3f 52 40 7e 3f 57 8b 7c 3f
       0.9953466 0.994468 0.99316895 0.98650116
000030 31 a9 80 3f 89 55 7b 3f 22 37 78 3f 75 10 7c 3f
       1.0051633 0.9817739 0.96959126 0.9846261
000040 4d 20 7c 3f 3f 20 7a 3f ca 2e 78 3f 14 9b 7a 3f
       0.9848679 0.97705454 0.96946394 0.9789288
000050 36 a8 7a 3f 3b 3c 7d 3f 99 ce 7a 3f 00 04 7f 3f
       0.9791292 0.9892003 0.97971493 0.9961548
000060 d5 41 7f 3f bc ab 7e 3f 11 75 80 3f 29 01 7d 3f
       0.99709827 0.99480796 1.0035726 0.98829895
000070 5b 10 85 3f b2 1f 80 3f 67 23 7f 3f b4 82 78 3f
       1.0395616 1.0009673 0.99663395 0.9707444

bias f4 [32]
000000 db 06 bd bb 0a f9 cb 3c dc f2 45 3b 34 56 2a 39
       -0.0057686395 0.024899025 0.003020457 0.00016244577
000010 21 27 90 bc f7 27 f8 bb a0 29 20 bc 57 61 a9 bb
       -0.017596783 -0.0075731236 -0.009775549 -0.0051690745
000020 b2 91 2e 3c a2 9e 20 3b 12 6f 10 bb 04 53 13 3c
       0.010654854 0.0024508615 -0.002203886 0.00899196
000030 bd ed bd ba 0d 2f d5 3a 05 fe 18 bc f4 ca 9c bb
       -0.0014490407 0.0016264633 -0.009337907 -0.004784936
000040 1e 2e 83 3c 6d 3e 6f ba ae 16 95 bc 8a f8 11 ba
       0.016013201 -0.00091264286 -0.018199291 -0.0005568346
000050 94 0c 2d bc d1 66 d2 ba 23 23 1b bc 3c 5a e2 3b
       -0.010562081 -0.001605237 -0.009468826 0.0069077294
000060 13 d0 e3 3b fc 33 06 3b ad 1e 4d 3c b7 93 8c bb
       0.0069522946 0.0020477762 0.012519521 -0.00429007
000070 a4 0e ec 3c 20 71 4c 3b 0c 69 04 3a 5c 8a 2a bc
       0.028815575 0.0031195357 0.00050510536 -0.010408964

running_mean f4 [32]
000000 78 ea e6 bd 3d 09 7d bd c5 15 d3 3c 8b 02 03 3e
       -0.1127519 -0.06177639 0.025767216 0.12793939
000010 66 2d c9 bd 40 fc b0 3e a4 14 ea bd d1 ea 25 be
       -0.09823112 0.3456745 -0.11429718 -0.16202857
000020 d4 f8 c0 bd 85 fa 60 bd ca 19 4f 3e 99 17 ec 3d
       -0.0942246 -0.054926414 0.20224681 0.115279384
000030 1a 63 04 be e0 9a b1 3d 04 a0 d8 be 29 53 78 bd
       -0.12928429 0.08672118 -0.42309582 -0.060626183
000040 1f 0f 6b 3d 3f 3f 40 bc ec 05 a8 3d ad f9 14 3e
       0.057387467 -0.011733829 0.082042545 0.14548369
000050 07 0a 4e bd dd e2 a1 bb b4 6b d7 3d a5 6e 10 3e
       -0.05030253 -0.0049403743 0.105185896 0.14104708
000060 2d ef 41 be 89 77 c7 3d ed c6 0c be ab 59 07 3e
       -0.18938895 0.097395964 -0.13747759 0.132178
000070 ca 11 c3 bd 8f e7 57 3e 56 7f 7d be fd da 3a 3c
       -0.09524877 0.21084426 -0.24755606 0.01140475

running_var f4 [32]
000000 ae 0c bc 3c 86 ce e9 3c 54 23 0c 3d f0 bd db 3c
       0.022955265 0.02854086 0.03421338 0.026823968
000010 d9 57 03 3d 7c 40 9b 3d 4f a1 ee 3c 34 f1 eb 3c
       0.0320662 0.07580659 0.029129652 0.028801538
000020 88 2f 18 3d 59 34 8c 3d ea 84 18 3d 18 77 1d 3d
       0.037154704 0.06845922 0.03723613 0.038443655
000030 2f 56 0d 3d 5b 03 40 3d cc 79 bc 3d 99 e2 c5 3c
       0.03450602 0.0468782 0.092029184 0.024155902
000040 5e 1e 02 3d 84 a0 f9 3c ae af 1b 3d fa e5 07 3d
       0.03176724 0.030472048 0.038009338 0.033178307
000050 14 f2 ce 3c 43 ab 32 3d 15 f7 24 3d ab ec 0c 3d
       0.025261916 0.04362036 0.0402747 0.03440539
000060 22 9a 2e 3d 53 e2 23 3d 04 18 22 3d b0 56 2b 3d
       0.04262746 0.04001076 0.039573684 0.04183072
000070 a3 7a 88 3d 32 28 00 3d 4a 5f 42 3d 32 30 ff 3c
       0.06664016 0.031288333 0.047454156 0.031150911

weight f4 [64, 32, 3, 3]
000000 4e 6f 06 ba 01 47 b7 3c 7d d9 48 3d 4c 1b d8 bc
       -0.000512828 0.022372724 0.049035538 -0.026380204
000010 de 60 b2 3b ae 3d 3f bd 02 90 4f 3d e9 5f fc 3c
       0.0054436764 -0.04668968 0.050674446 0.030807452
000020 58 0e 23 3d e6 60 f2 bc c1 2d e2 bc 0a a2 a3 3a
       0.0398086 -0.02958722 -0.027609708 0.0012484204
000030 3e 24 40 bd 29 fc 76 3c da 27 47 bc 1c 44 70 bd
       -0.046909563 0.015074768 -0.012155497 -0.058658704
000040 7f 88 2f bc 53 af 79 3d db c2 83 3c 6f ea 57 bd
       -0.010713696 0.060958218 0.016084125 -0.052713808
000050 c0 6b e8 bb ba 38 4d bd 97 b9 48 3d 4b 37 98 bc
       -0.007092923 -0.050102927 0.049005117 -0.018581053
000060 79 b0 40 bd 81 ee 96 3c c1 fb a8 bc 08 28 a9 3c
       -0.047043297 0.018424274 -0.020627858 0.020648971
000070 0b 70 12 3c 01 f9 12 bd f8 6f f4 bc c2 f1 c1 bb
       0.008937846 -0.035882 -0.029838547 -0.0059187124
000080 3b 2c 16 3d 87 a8 5e bc 97 a2 6f 3c ee 1b 88 3c
       0.036663275 -0.013589985 0.014626167 0.01661488
000090 93 fe 17 bd b2 a9 2f 3d a2 b0 10 3c 52 e7 3d 3c
       -0.037108015 0.042886443 0.008831175 0.011590796
0000a0 c6 ad 69 bc f8 39 e0 3c 9f cb 27 3d 02 ec 86 ba
       -0.014262622 0.027371392 0.040965673 -0.0010293724
0000b0 74 24 33 3d f4 ec 97 bc 70 b6 fc 3c d2 41 09 3a
       0.043735936 -0.018545605 0.030848712 0.0005235943
0000c0 04 15 9b 3c 9a f2 31 bd 71 0a 0d bd 88 0d 1c 3d
       0.01893092 -0.043444254 -0.034433786 0.038098842
0000d0 08 f4 54 bc fc 5d 8e 3d 1f b8 f3 3c 6e 02 a7 bd
       -0.012997635 0.0695152 0.029750882 -0.0815476
0000e0 d1 d7 81 3d 8b 72 35 3d 83 97 c6 bc 77 47 d3 bc
       0.06339992 0.04429869 -0.024242168 -0.025790913
0000f0 b8 ff 2c bc 97 5b 02 3d 48 1d 40 bd 43 c5 e7 bc
       -0.010559015 0.031825628 -0.046902925 -0.028292304
000100 29 63 36 3d a2 a3 87 3d 30 0b 4b 3d a7 bc 80 bc
       0.04452816 0.06623007 0.049571216 -0.015714956
000110 44 7b 9c 3c 5e c6 f1 bc fc 6f 31 bc 9f a1 53 bd
       0.019101746 -0.029513534 -0.010829922 -0.051667806
000120 8b 05 7a 3c 77 7e ec ba 5b 18 d1 3b b9 f5 5c bd
       0.015260111 -0.001804306 0.006381077 -0.053945277
000130 a2 5d 0c 3d 3f 44 7b 3c 56 52 a2 39 e7 eb 66 3c
       0.034268983 0.015336095 0.00030960393 0.014094329
000140 55 5a 88 b9 8a 92 b4 3c d1 71 73 3d 0d 1a 4f bd
       -0.00026007244 0.022042532 0.059434716 -0.050561953
000150 4a 75 c0 3c 39 55 64 b8 d8 3a 03 3d 11 79 c9 bc
       0.023493428 -5.4438806e-05 0.03203854 -0.024593862
000160 6e d3 84 bc 55 77 94 3c 3c de 10 3d 1b 27 28 3d
       -0.016214099 0.018123308 0.03536819 0.04105292
000170 07 b6 ec 3c ff 1f 65 3c 40 69 fa bc e2 f9 92 3c
       0.028895391 0.013984679 -0.030567765 0.017941419
000180 8a 93 81 3d de d8 98 3c a8 ab c0 ba ea 9e 86 3c
       0.06326969 0.018658098 -0.0014699595 0.016433198
000190 b5 ac 0a 3d 2e 98 4f 3c 8e 56 19 bd 6e 84 04 3c
       0.033856113 0.01267056 -0.03743606 0.008088214
0001a0 4c d5 02 3d 93 23 03 bc f6 20 44 bd 6d 20 1b bd
       0.031941697 -0.008004087 -0.047882996 -0.03787272
0001b0 d7 96 bf 3c 77 a7 e6 3c de 94 1e 3d 76 72 39 3d
       0.023387356 0.028156025 0.03871619 0.045275174
0001c0 01 74 22 bc d5 73 b4 bc 18 d7 23 3c fa e5 3c 3d
       -0.009915353 -0.02202789 0.010000013 0.04611776
0001d0 4b 8b 45 3d 90 2f 09 3c 19 7f ae bb 9f cb ff bc
       0.048228543 0.008373156 -0.00532521 -0.031225024
0001e0 31 5a 4b bc 80 2e 49 bd 89 eb f9 bc c0 2f 22 3d
       -0.01241164 -0.04911661 -0.03050782 0.03959632
0001f0 f0 88 ce bb 74 d4 2c bc fd 32 84 3b a9 18 87 bc
       -0.0063029453 -0.0105487 0.0040343986 -0.016491251
000200 fd 5b 97 3c 2a bf d9 3c e5 ae 45 3d 95 50 cd 3c
       0.01847648 0.026580412 0.048262496 0.025062839
000210 95 d4 96 3b 96 3f 20 bc 45 0f 7e bc 74 95 de bb
       0.0046029785 -0.009780785 -0.01550657 -0.0067927185
000220 9c 25 8a bc 87 cc 89 bd 38 58 b6 bb aa 6d 1b 3d
       -0.016863637 -0.067284636 -0.0055647157 0.03794638
000230 76 91 4a bd c2 36 e0 3c c9 97 25 3d f5 dd bd ba
       -0.04945513 0.02736986 0.040427957 -0.0014485704
000240 d8 b7 45 bd 42 87 1f 3c bb db 21 bd b4 ea 69 3a
       -0.04827103 0.009736838 -0.039516192 0.0008923218
000250 d9 7b 71 3d be e6 2a bc d8 d3 22 bd 50 71 95 3c
       0.058956 -0.01043099 -0.03975281 0.018242508
000260 83 09 b2 bb a9 10 12 3d 93 85 25 3d 68 00 2c 3d
       -0.005433263 0.03566042 0.04041059 0.041992575
000270 b0 8e 4d 3c b3 51 0d 3a 09 dd 91 3d 49 12 8a 3c
       0.012546226 0.0005390897 0.07122237 0.016854422
000280 c5 19 0d bd 24 ae ab 3c 99 46 bf 3c 7a 2f 92 bc
       -0.034448404 0.02095706 0.023349093 -0.017844904
000290 87 40 14 3d f3 a6 c5 3b 18 1c 5f 3c 78 62 ac 3c
       0.03619435 0.006031865 0.013617538 0.021043047
0002a0 12 bb 2b 3d 0d 15 0c bd a0 60 54 3d 16 ce 56 bc
       0.04192645 -0.034199763 0.05184996 -0.013110658
0002b0 a9 02 cc bc dd e3 49 bb 8a 2f 38 3b 91 ef ea bc
       -0.024903612 -0.0030805983 0.0028104507 -0.028678687
0002c0 20 2d c4 bc 89 4a f8 3b 56 5f 2b 3b b3 f6 8e bc
       -0.023947299 0.0075772447 0.0026149354 -0.01745162
0002d0 31 b6 6b 3c a2 14 d1 3c 93 69 cd 3c f2 1e 26 bd
       0.0143867 0.025522534 0.025074756 -0.040556855
0002e0 53 ad 29 bd 41 c0 dd bc 6a 1c c6 3c 29 31 10 3d
       -0.04142506 -0.027069213 0.02418347 0.035203133
0002f0 a3 21 79 3c 7e a0 83 bb 9e f0 35 3d bf 32 bb 3c
       0.0152057735 -0.004016935 0.044418924 0.022851346
000300 e0 c9 75 bd ea ac 4e bc b4 f6 35 bc 6c 3e a0 bc
       -0.060006976 -0.012614468 -0.011106182 -0.019561015
000310 32 ed 56 3c fe bf 1f bd 38 88 02 3c 07 9e 46 bd
       0.013118075 -0.039001457 0.007967047 -0.04849055
000320 7f 15 12 3d 45 aa e0 3c 93 c0 63 3c 7f 03 ab bc
       0.03566503 0.02742494 0.013900894 -0.02087569
000330 d0 7b 01 3d 19 91 5f bd 02 1f 46 3d df fa 38 3d
       0.031612217 -0.054581735 0.048369415 0.045161124
000340 85 14 94 bb c0 e1 70 3d a7 b8 13 3d b2 c5 87 3c
       -0.0045190477 0.058809042 0.03606477 0.01657376
000350 23 fb 0f 3d ba 24 64 bd 9e cc dd 3c 22 5b 3c bd
       0.035151612 -0.055699088 0.027075108 -0.04598535
000360 29 a7 4b bd 5f 66 38 3d bf b9 88 bc 85 2a 1b 3d
       -0.049719963 0.045019504 -0.016690133 0.037882347
000370 60 10 5f bd cc 6b 80 bd 3a 7f 82 bc 43 d8 f2 3c
       -0.054458976 -0.062705606 -0.015929807 0.029644137
000380 18 be 2b 3d 36 e3 c7 3c 46 70 cb 3c eb 15 9c 3c
       0.041929334 0.024400335 0.02483381 0.01905342
000390 cc c8 b4 bc 4f ff 1c bc 69 60 12 bd 6e dd 75 bc
       -0.022068404 -0.009582355 -0.035736475 -0.015006406
0003a0 b7 5c 7a 3c a6 c0 b2 3c 67 f9 94 bd c9 02 74 3d
       0.015280894 0.021820378 -0.07274132 0.05957297
0003b0 a3 d1 2a bc 7f 24 3b bd 27 46 f9 bb 96 ff 5b 3b
       -0.010425958 -0.045689102 -0.0076072398 0.003356909
0003c0 71 c4 eb 3c c7 4d fe 3c 33 7e 08 bc b3 59 8a bd
       0.028780194 0.031042947 -0.0083308695 -0.0675539
0003d0 59 b5 2d 3c 74 ad 04 3d a0 1f 3e 3d d4 d3 e9 3b
       0.010602319 0.03239198 0.04641688 0.0071358476
0003e0 b0 a9 a3 3b e8 dd 31 bd 48 5e 4b 3d 81 5a f2 3b
       0.0049945936 -0.043424517 0.04965046 0.007396043
0003f0 e4 bf 0f bd d4 12 30 3d 15 bd a8 bb e5 67 8d bd
       -0.03509511 0.042986706 -0.0051494935 -0.06904582

bias f4 [64]
000000 17 4f 95 bb 0e 53 45 bd 26 65 56 bd e5 30 85 bb
       -0.0045565474 -0.04817491 -0.052342556 -0.0040646666
000010 c1 7b 57 bd 87 7e 45 bd 94 90 68 bc e7 24 31 3d
       -0.052608255 -0.04821637 -0.014194626 0.043248083
000020 8f 94 10 bc 3e d2 10 3d d3 7f b5 bc c3 34 43 3c
       -0.008824482 0.035356753 -0.022155678 0.011914435
000030 5c 3c 38 3d e5 de 91 bb 73 89 10 3d 7c 0f b4 bc
       0.04497944 -0.00445162 0.03528733 -0.02198004
000040 23 af 24 3c f6 d3 82 3c f1 ef c5 3c 00 4c d1 3c
       0.0100515215 0.015970211 0.024162265 0.025548935
000050 be f5 cf bc 91 fe be 3c 05 ef f0 bb 06 c4 ae bb
       -0.025385734 0.023314746 -0.007352712 -0.0053334264
000060 1a 69 30 bd f1 9f 03 3d 41 1c 1d bc 76 20 f1 bb
       -0.043068983 0.032134954 -0.009589256 -0.007358606
000070 37 51 ab 3c 12 04 6c bd b1 c2 2f 3d 9d fe bd 39
       0.02091275 -0.05762107 0.04291028 0.0003623859
000080 f2 4b 1d 3d d9 3c 6e bd 3a b8 b5 3c b1 4f 56 bd
       0.038402505 -0.058163498 0.022182573 -0.052322093
000090 cf 2a f5 3c 45 03 11 3d 7a 3c cc 3c 14 ab 99 3c
       0.02992764 0.03540351 0.024931181 0.018758334
0000a0 6c 79 7f 3c 1f 2f 31 bd 2e 15 a2 3c 64 e9 09 bd
       0.015592914 -0.04325783 0.01978549 -0.033669844
0000b0 6b 25 84 bc 20 0e 8e 3c 86 ec 03 bd 9d 1e 15 3c
       -0.016131124 0.01734072 -0.03220799 0.009101537
0000c0 45 47 13 bd a6 9b 88 3c 62 2b 0d 3c e5 c8 3c 3a
       -0.03595664 0.016675781 0.0086163 0.00072015665
0000d0 73 33 5b bd ac c3 32 3d aa c8 50 bd 89 6a 36 3d
       -0.053515863 0.04364364 -0.05097262 0.044535194
0000e0 9d 2a 8f bc fc 8d d6 3c 7d f3 0e bd b5 59 45 bd
       -0.017476374 0.02619075 -0.034900177 -0.048181254
0000f0 9d 45 2d bd 23 b7 4d bd 3f 32 90 3c 74 71 f0 b8
       -0.042302717 -0.05022348 0.017602084 -0.00011465224

weight f4 [64]
000000 ff 9d 7e 3f 28 84 7e 3f d3 45 7c 3f 1a 59 7d 3f
       0.9945983 0.99420404 0.98544043 0.98964083
000010 5b 38 7d 3f 82 ed 7d 3f 2c 2c 7e 3f e5 d9 7b 3f
       0.98914117 0.99190533 0.9928615 0.98379356
000020 f8 8a 7d 3f 19 8f 7c 3f 28 4b 7e 3f 9e ee 7e 3f
       0.99040174 0.9865585 0.9933343 0.9958285
000030 b6 a8 7f 3f 7a dc 7c 3f 5d 0b 7f 3f 5d d2 7b 3f
       0.9986681 0.9877392 0.99626714 0.98367864
000040 cb 91 7b 3f a8 6d 7d 3f be 09 7e 3f ff 7d 7c 3f
       0.9826934 0.9899545 0.99233615 0.98629755
000050 ae ff 7c 3f 61 e5 79 3f c4 7e 7d 3f d9 04 7e 3f
       0.98827636 0.9761563 0.99021554 0.99226147
000060 c9 59 7b 3f df 9e 7d 3f 89 6f 7b 3f d7 57 7c 3f
       0.98183876 0.99070543 0.98217064 0.9857153
000070 90 36 7d 3f 2e fb 7e 3f b8 e5 7d 3f 84 ef 7d 3f
       0.9891138 0.9960202 0.9917865 0.99193597
000080 be 49 7c 3f 2b 92 7d 3f 91 ec 7b 3f 18 3f 7b 3f
       0.9855002 0.9905116 0.98407847 0.9814315
000090 c4 00 7b 3f 58 4a 7e 3f b6 5e 7c 3f 6f 08 7c 3f
       0.98048043 0.9933219 0.9858202 0.9845037
0000a0 1e 88 7b 3f d2 88 7d 3f b9 12 7c 3f a0 cb 7c 3f
       0.98254573 0.99036896 0.9846607 0.9874821
0000b0 e1 f4 7b 3f 4f cb 7d 3f 54 0b 7f 3f 7b 86 7e 3f
       0.9842053 0.9913835 0.9962666 0.9942395
0000c0 79 ec 7c 3f 53 12 7e 3f 2e bf 80 3f 63 db 7c 3f
       0.9879833 0.9924671 1.0058343 0.9877226
0000d0 25 c4 7b 3f 45 55 7d 3f bf ab 7f 3f 04 be 7e 3f
       0.9834617 0.98958236 0.9987144 0.9950869
0000e0 c3 07 7d 3f f5 3c 7e 3f 34 c8 7b 3f 79 21 7d 3f
       0.9883997 0.99311763 0.9835236 0.988792
0000f0 24 e7 7f 3f 78 e7 7f 3f 9e 98 7b 3f 7f 72 7c 3f
       0.9996207 0.9996257 0.9827975 0.9861221

bias f4 [64]
000000 7a e8 93 3b 60 77 3d 3b 2f b4 e1 bb 95 67 a0 3b
       0.0045137974 0.0028910264 -0.0068879346 0.0048951604
000010 d4 ab 89 ba 8d 32 ca 3b 2f d6 c4 ba af b7 18 bb
       -0.0010503479 0.006170577 -0.0015017445 -0.0023302843
000020 13 a3 3d 3b 93 f2 7f bb f1 69 b5 3b 4b e9 eb 3a
       0.002893631 -0.0039054498 0.005536311 0.0017998604
000030 71 63 3b bb 09 d9 b1 ba 12 03 8f bb f6 ef b9 ba
       -0.0028593207 -0.001356871 -0.0043643797 -0.0014185894
000040 d5 0f 82 bb 3e 7c d9 3b 34 e3 22 3a 6e 51 55 3b
       -0.0039691725 0.0066371253 0.00062136655 0.0032549757
000050 b3 93 a3 b9 bf d9 01 bc 07 a8 fb 38 04 48 9e 3b
       -0.00031199827 -0.00792545 0.0001199991 0.0048303623
000060 2b a4 f4 bb 7f 89 20 bb c5 55 ea bb 93 19 b1 bb
       -0.0074658594 -0.0024496017 -0.007151338 -0.00540466
000070 44 52 3c 3a 48 a3 ca 3a 3d b9 cd 3b b6 b5 38 3b
       0.00071838894 0.0015460039 0.0062781856 0.002818448
000080 b4 78 0c 3b c4 e3 b7 3b 6c 4f 8f bc ac 42 e5 ba
       0.002143425 0.0056118686 -0.017493926 -0.0017491183
000090 36 2f 13 bb 81 3f 95 3b 59 00 a5 bb b4 fb 1b bb
       -0.002245856 0.0045546894 -0.005035442 -0.002380115
0000a0 6c 45 1a bc 65 d0 11 3b 52 67 13 bc 81 e5 04 bc
       -0.0094159655 0.0022249457 -0.008996801 -0.008111359
0000b0 86 ea 54 3a af 01 19 3b 69 91 6d b9 b3 b4 1b 3c
       0.0008122105 0.002334695 -0.00022656251 0.009503531
0000c0 5f 46 7e 3a 6c eb 3e 3b bd f1 8c 3b 80 94 08 bb
       0.0009699817 0.0029132022 0.0043012784 -0.0020840466
0000d0 56 ed ee ba 4a eb 69 3b 51 4a 17 3a e8 99 12 3b
       -0.0018228691 0.0035693222 0.0005771267 0.0022369567
0000e0 d9 8e 89 3b 7d be 52 3c 05 28 32 bb 28 0d 8c bb
       0.004197937 0.012862799 -0.0027184498 -0.0042740293
0000f0 16 3b 0c 3c 74 e1 ed 3a 99 02 d9 bb d9 66 c6 bb
       0.008559009 0.0018148855 -0.006622624 -0.006054741

running_mean f4 [64]
000000 61 df 6c 3e 24 03 5e be 37 53 39 be 66 9d 4f be
       0.23132087 -0.21680886 -0.1809815 -0.20274886
000010 fe 0a 19 3e 13 87 d8 3d c5 0e 8c 3e 54 ae 34 bf
       0.149456 0.10572638 0.27355018 -0.70578504
000020 cd e1 a9 3e 4d 68 b1 3e c1 5e 02 ba 3d 64 d2 3e
       0.33180085 0.34649888 -0.0004973226 0.410921
000030 fa cb 02 3f 39 5b 9b be d5 ce ed 3d 31 1a 16 3e
       0.51092494 -0.30343035 0.11611716 0.14658429
000040 e4 50 c2 be 77 6f 6e bd 25 68 8a 3e 39 e6 3e be
       -0.3795234 -0.05821177 0.2703258 -0.1864251
000050 cb cb 62 3e e2 94 5b 3d 89 50 f1 be 24 f7 b1 3e
       0.22148053 0.053608783 -0.47131756 0.34758866
000060 97 e3 87 3e c7 99 d1 bd c2 99 f6 3c 1c 55 91 3e
       0.26540825 -0.10234409 0.030102614 0.28385246
000070 04 79 02 3e 0a 99 18 bd e7 23 6a 3d bd 69 54 3e
       0.12741476 -0.037255324 0.057163145 0.20743461
000080 f4 0e d9 be f2 95 09 bf 07 51 67 3e da 84 3d 3d
       -0.4239422 -0.53744423 0.22589503 0.046269275
000090 da e3 88 be f6 7d 8a bd c4 3d 8b 3e 76 ef b6 3e
       -0.26736337 -0.067623064 0.2719556 0.3572957
0000a0 3f 79 2d be 32 5b 12 be ee bd 64 be 0a ce 08 3f
       -0.16940783 -0.14292601 -0.22338077 0.5343939
0000b0 60 47 fc be 60 b6 e4 bd a6 f1 35 3e 92 04 3e be
       -0.49273205 -0.11167598 0.17767963 -0.18556431
0000c0 1b 18 81 be a8 cc b5 be 7a 2c 00 3f 9f e2 63 3e
       -0.25213704 -0.35507703 0.50067866 0.22254418
0000d0 ac 6f 9f bd fc 0e de be 29 46 d9 bd ba 06 9f be
       -0.077849716 -0.43370807 -0.10609085 -0.3105982
0000e0 7b a8 8d be b0 2a db 3e 5e 70 b0 be 1e d1 4a be
       -0.27667603 0.42806005 -0.3446073 -0.19806334
0000f0 d5 ba c3 be 1d f3 c8 3e 5d 94 01 3f a1 b2 e8 bc
       -0.3822848 0.3924798 0.5061701 -0.02840549

running_var f4 [64]
000000 9f 45 d5 3d 82 7c 10 3e da 73 26 3e 8d 9d f2 3e
       0.1041367 0.14109996 0.16255131 0.47385827
000010 9a 11 60 3e f7 2e 56 3e 4d 80 1e 3e 3f f7 62 3e
       0.21881714 0.20916353 0.1547863 0.2216463
000020 8e 14 03 3e 42 b7 6f 3e 3d c7 04 3e b5 29 8c 3e
       0.1280081 0.23409751 0.12966628 0.2737557
000030 05 ed 59 3e d6 1e 07 3e 9c f1 95 3e ca 7f 59 3e
       0.21281822 0.13195357 0.29285896 0.21240154
000040 13 b5 29 3e 08 42 17 3e f9 97 bb 3e b7 de 3b 3e
       0.1657298 0.14771283 0.36639383 0.18346678
000050 ef e7 32 3e bb 0c 66 3e 62 75 6b 3e 23 b8 32 3e
       0.17471288 0.22465794 0.22993997 0.17453055
000060 c1 d1 43 3e a4 88 6b 3e 97 26 32 3e 0f e7 51 3e
       0.19122984 0.23001343 0.17397533 0.20498298
000070 0e d7 26 3e bd 25 38 3e a6 73 03 3e 1f fe 3f 3e
       0.16292974 0.17983146 0.12837085 0.18749283
000080 45 c7 35 3e 31 1d 52 3e 26 70 2d 3e c3 52 5c 3e
       0.17751797 0.20518948 0.16937312 0.21515946
000090 7b 84 ab 3e 14 0c 50 3e 2c 60 5a 3e b1 a7 8d 3e
       0.33499512 0.20317107 0.21325749 0.27667
0000a0 72 60 5a 3e bc 65 fc 3d a7 09 47 3e c4 02 7e 3e
       0.21325853 0.12324092 0.19437276 0.24805743
0000b0 8b fd 64 3e f8 66 11 3e c6 d5 1e 3e 41 d3 5f 3e
       0.22362344 0.14199436 0.15511236 0.2185793
0000c0 0c e3 26 3e 11 d5 68 3e 3a c4 10 3f 5a c1 07 3e
       0.16297549 0.22737528 0.5654942 0.13257352
0000d0 bb cd 93 3e af f7 8a 3e 60 40 30 3e b9 67 b4 3e
       0.28867897 0.27142093 0.17212057 0.35235384
0000e0 d8 65 4e 3e 8b 92 65 3e d1 83 dd 3d 5c 66 d0 3e
       0.20156038 0.22419183 0.108161576 0.40703094
0000f0 80 11 a5 3e f0 c9 44 3e 32 2b 36 3e 7f 9e 02 3e
       0.32239914 0.19217658 0.17789915 0.12755774

weight f4 [128, 64, 3, 3]
000000 00 05 50 ba 8a 92 d5 3b 18 23 02 bd ac 73 18 bc
       -0.00079353154 0.006517713 -0.03177175 -0.009304922
000010 b3 29 11 bd 9b f8 b5 3c 7f d9 0a ba 40 7d f7 3c
       -0.035440158 0.02221327 -0.00052966917 0.030211091
000020 c3 2c 2c 3c 1c 69 0a bd 72 9d bb bc 19 23 23 bd
       0.010508719 -0.033791646 -0.022902224 -0.039828394
000030 1c 7b e6 bc 1c 1f 64 bc bd a3 5d 3b 78 79 2a bc
       -0.028134875 -0.013923433 0.003381952 -0.010404937
000040 ad f2 a6 bc b3 07 38 3c f8 10 0d bd 8a 16 a6 3b
       -0.020379389 0.011232304 -0.03444001 0.005068605
000050 ca 33 91 bc aa e6 d9 3c 71 24 ed 3c 21 c1 c1 3c
       -0.01772489 0.026599247 0.02894804 0.023651661
000060 94 8b 5a 3c 23 fd b0 bb e3 ac 04 bd a0 5d e4 3c
       0.013338942 -0.00540127 -0.03239144 0.027876675
000070 aa 10 98 bc a7 dc 08 bb 8f 43 25 bb 36 06 92 3c
       -0.018562634 -0.0020883472 -0.002521727 0.017825227
000080 95 d5 99 3c c1 3b 0e 3d eb 58 05 3c 3d ad b8 bc
       0.018778602 0.034724955 0.0081388755 -0.022543544
000090 eb c5 e5 bc 93 06 6f 3b 79 a0 c1 3c af 49 3a bd
       -0.028048476 0.0036472424 0.02363609 -0.045480426
0000a0 f5 a4 6b bc e7 ff 87 3c d7 e8 de 3c 88 a0 d9 bc
       -0.014382591 0.016601516 0.027210636 -0.026565805
0000b0 7a ca c1 bc 3c 3d 4c 3c 80 f6 1f 3d 38 7f ac bb
       -0.023656119 0.012465771 0.03905344 -0.005264189
0000c0 b8 96 f8 3a 28 13 cf bc 40 f9 04 3d fe ec 19 bd
       0.0018965816 -0.02527769 0.032464266 -0.03757953
0000d0 24 89 9a bc 31 bb bc ba 8a 9b fa bc 1a 23 06 3d
       -0.018864222 -0.0014399049 -0.030591745 0.03274832
0000e0 51 50 4c bc 90 34 22 3c 8a c6 81 3c 9a a1 be bc
       -0.012470321 0.009900227 0.015841741 -0.023270417
0000f0 51 97 b8 bc 02 56 17 3d 17 ec 49 3a b0 4c 47 3c
       -0.02253309 0.036947258 0.00077027216 0.01216428
000100 ae 45 a3 3b c0 09 09 3b d0 d9 ff bc c3 56 05 bd
       0.0049826717 0.0020910352 -0.03123179 -0.032553446
000110 ed 54 14 bd 66 00 ed 3b 7a 62 0d bc f7 6d 0f 3c
       -0.036213804 0.0072327135 -0.008629436 0.008754245
000120 16 11 3c 3b 1c 15 32 bd 59 cf 26 3d a6 20 87 bc
       0.0028696707 -0.043477163 0.040725086 -0.01649506
000130 20 51 46 bc 7e 3c ed bb bd 71 80 3c a4 15 05 3d
       -0.012104303 -0.0072398772 0.015679235 0.03249134
000140 9e f7 19 bc ac f3 08 bd e6 86 10 3c 65 bc 03 3d
       -0.009397415 -0.03343551 0.008821225 0.03216209
000150 81 3e cb bc 2a 5c 43 3b 8b 24 da bc 3d d5 cd 3b
       -0.024810078 0.0029809573 -0.026628753 0.0062815235
000160 bf 60 35 3b 7d c6 3e 3c c3 da 7f 3c 40 46 02 3d
       0.0027676073 0.011644003 0.015616122 0.031805277
000170 49 d9 b4 3c 80 ce 15 3d c3 5a e3 3c 24 6b 71 3c
       0.022076266 0.036573887 0.02775324 0.014735017
000180 24 e0 c2 bc 40 2a 9d bb 90 0a b0 3c f7 59 16 3c
       -0.02378852 -0.0047962964 0.021489412 0.009176723
000190 a6 58 2f bd 97 36 5a bb b7 9f c5 3c 2b fd a3 3c
       -0.04280915 -0.0033296698 0.02412401 0.02001818
0001a0 da 7b a1 bc ce 2a c5 3c 37 99 64 3b d3 39 8c 3c
       -0.019712377 0.024068262 0.0034881362 0.017117416
0001b0 81 2e 06 3d 11 0d 0b bd 10 86 29 3d d5 cb 03 bd
       0.032759193 -0.033948008 0.041387618 -0.03217681
0001c0 a1 20 07 3c 5a 5b 37 3c 86 d2 09 3d da f7 57 3c
       0.008247525 0.0111912135 0.033648036 0.013181651
0001d0 ae 12 24 bd 63 91 d4 bc d1 a6 45 ba d4 bc 55 bc
       -0.040056877 -0.025948232 -0.0007539811 -0.013045508
0001e0 2a 32 ff 3c 81 bf 08 3d 38 4e c5 bc b3 75 aa bc
       0.03115185 0.033385757 -0.02408515 -0.020808076
0001f0 8b 76 30 3c ef ef 94 bc e6 e4 97 3c 82 d3 b8 3c
       0.01077045 -0.018180816 0.018541764 0.022561792
000200 a8 00 3a bc b9 32 e3 bc 8e 77 9d bc 97 6b 34 bb
       -0.0113526955 -0.027734147 -0.019222047 -0.002752995
000210 8e 77 e6 bc f0 ab 2b 37 f0 da 1d 3d 4b 7d 08 bd
       -0.02813318 1.0232427e-05 0.038538873 -0.033322614
000220 58 08 4e 3c 53 9c e6 3b 4a c8 b0 3c 9c 51 f4 3a
       0.0125752315 0.0070376783 0.02157988 0.0018640044
000230 80 a3 f1 3c c5 5c be bc 28 40 1e bd 23 3f 84 bc
       0.029496908 -0.023237595 -0.038635403 -0.016143387
000240 d4 b9 d2 bc 65 06 cb ba d0 f8 05 bc c4 2a a5 3b
       -0.025723375 -0.0015489577 -0.008176997 0.0050404985
000250 a4 64 6d 3c b5 81 64 bb 2b df ad 3c 04 ad 2a bd
       0.014489327 -0.003486735 0.021224579 -0.041668907
000260 4e 38 03 bd a7 79 0c 3c fc e5 ba bc 82 fa d7 3c
       -0.03203612 0.008573926 -0.022814743 0.026364569
000270 cc 0c ee 3c fc 94 bd bc c6 9c 1b 3d 4a 0c 85 3c
       0.029058836 -0.02314233 0.037991308 0.016241211
000280 59 28 b0 3c c9 d0 0e bd 76 88 f9 bc bf af 2d 3b
       0.021503614 -0.03486708 -0.030460577 0.0026502458
000290 cd 76 1c bd 92 d5 0e bc 4b 7f f6 bc 7d 4f 66 bb
       -0.038199235 -0.008717911 -0.030089995 -0.0035142594
0002a0 50 97 20 3c a9 9e 83 ba 0f 82 64 bb 69 cd bb bb
       0.009801701 -0.0010041791 -0.003486756 -0.005731274
0002b0 18 f5 16 3d 76 9e 6b bc f3 67 b6 3c 71 e1 9f 3c
       0.036854833 -0.014381042 0.022266364 0.019516679
0002c0 8d ba 22 3d 54 27 65 3c 73 a8 d8 bc cf de b4 3c
       0.03972869 0.013986427 -0.02644751 0.0220789
0002d0 f9 1b 13 bc 92 51 1e bd e9 75 81 3c 38 1b c4 3c
       -0.008978837 -0.03865201 0.015803294 0.02393876
0002e0 83 cf 25 bd 40 ea 24 bd 88 52 f2 bc a9 cb 37 bd
       -0.0404811 -0.04026246 -0.02958037 -0.04487196
0002f0 12 cf f8 bc 90 b2 ff bb a2 f1 0c bc aa b2 c6 3b
       -0.030372176 -0.0078032687 -0.008602532 0.006063779
000300 9a af d6 3c 75 f4 91 bc 88 b9 81 bc 8e b8 78 bc
       0.02620678 -0.017816762 -0.015835539 -0.01518072
000310 e9 6a 90 bb 3e 9e 1a bd ad 37 95 3b 7a 24 a3 bc
       -0.004407276 -0.037748568 0.004553756 -0.019914854
000320 e7 96 cd bc 19 4c 1b 3d d6 4b b6 3c c7 7a 00 3d
       -0.02509637 0.03791437 0.022252958 0.03136709
000330 82 f6 1c 3c 03 2d a8 ba d5 1c e8 3c 49 5d 43 bd
       0.009580256 -0.0012830797 0.02833406 -0.047696386
000340 91 6b 0b bd f3 e4 a2 3c 21 9d d1 bb 66 53 f4 3c
       -0.03403813 0.019884562 -0.006396905 0.029824924
000350 8e 1a fe bb 68 8a f6 bc b9 41 02 bd 68 df b9 3c
       -0.0077546304 -0.030095294 -0.03180096 0.022689536
000360 53 7a 2d bd 2a cd 2d bd 0a 7f aa bc ca 01 f2 3b
       -0.042352986 -0.042431988 -0.02081253 0.007385467
000370 e2 3f 90 3a 55 5e ad 3c 7b b2 c6 bc 9d 8c 72 bc
       0.0011005367 0.021163145 -0.024255028 -0.014804033
000380 d3 0b 0a bd 76 83 92 3c 08 0f d4 bc 21 91 a7 3c
       -0.033702683 0.017884951 -0.025886074 0.020454945
000390 9a 62 b6 3c 18 de 32 bc 5f 2b 08 3c 22 03 97 bc
       0.022263814 -0.010917209 0.008311122 -0.018434111
0003a0 fc 0d c7 3c 9a 2c 28 bd 93 aa b9 3c 54 75 2c bc
       0.02429866 -0.04105816 0.022664344 -0.01052602
0003b0 ef 62 98 3c 96 bc 74 3c 3d 30 19 bc da f1 ee 3c
       0.018601863 0.0149375405 -0.00934988 0.029168058
0003c0 d8 11 e9 bb 95 25 94 bc cb 8b e4 3c 47 b8 7e 3b
       -0.007112723 -0.018084327 0.02789869 0.0038867162
0003d0 4c 65 d3 bc 3d 70 1b bd f4 a3 bf bc 23 6e 4a bd
       -0.025805138 -0.037948836 -0.023393609 -0.04942144
0003e0 11 5c 3c 3c a8 38 2a 3c 9a f7 c6 3c 13 b0 50 3c
       0.01149656 0.010389484 0.024287988 0.012737292
0003f0 18 b0 0c 3d 82 6c 2d bd a9 bd c4 bc b8 bb e7 bc
       0.034347624 -0.04233981 -0.024016218 -0.028287753

bias f4 [128]
000000 cb 7a 19 3d d3 fe 38 3c c8 7e 4c 3c 15 90 a4 3c
       0.03747062 0.011291224 0.012481399 0.020088235
000010 6e 14 06 bd 3b ca 0e 3c 35 43 dc bc 2b 81 11 3d
       -0.032734327 0.008715208 -0.026887516 0.035523575
000020 4f 64 20 3c 4a 0f 19 3c c0 c0 67 bc 6f 27 a5 3c
       0.00978954 0.009342024 -0.014145076 0.020160405
000030 b2 a5 98 bc 7f 41 c8 bc 2d df c7 3b dd 0a 40 3b
       -0.018633697 -0.024445293 0.0060996027 0.002930335
000040 05 57 07 bc cf 07 21 bc e1 04 de 3c 79 12 57 bc
       -0.008260493 -0.009828522 0.027101936 -0.013126963
000050 b1 59 18 3d b9 3a 28 3d cc 56 ea 3c c7 52 90 bc
       0.03719491 0.041071627 0.028605841 -0.017617596
000060 bf 76 f5 bc 19 87 92 bc b9 cf 42 bc e1 75 1f bd
       -0.02996385 -0.017886685 -0.011890345 -0.038930777
000070 e7 15 66 3a 3a c0 bb 3c 5f 07 21 bd 86 68 06 bd
       0.00087770674 0.02291881 -0.03931367 -0.032814525
000080 bc 33 db 3c b8 d8 18 bc 4e 01 97 3b 59 bf f4 3b
       0.026758067 -0.0093290135 0.00460831 0.0074690995
000090 a2 fa d2 bc e8 2b 6e 3c 6a 74 da 3a 77 c4 b7 bc
       -0.025754277 0.014536835 0.0016666774 -0.022432549
0000a0 b6 07 14 3d 56 13 5a 3c 1a ee ee bc 5e b0 d6 3c
       0.036140166 0.013310274 -0.02916627 0.026207145
0000b0 e7 0e 05 bd 29 35 fa bc 21 92 b8 38 c3 08 b4 bc
       -0.032484915 -0.030542927 8.801022e-05 -0.021976834
0000c0 94 62 23 3d ea 05 72 bc 23 64 5a bc af 41 02 bd
       0.039888933 -0.014771918 -0.0133295385 -0.031800922
0000d0 0d 23 a3 3c c3 cf e4 bc 9b 4f 00 3b b0 e4 b2 bc
       0.019914174 -0.0279311 0.0019578699 -0.021837562
0000e0 22 8f 04 3d 0d a3 72 bc c6 5f 3c bc f9 f0 89 3c
       0.032363065 -0.014809382 -0.011497444 0.016838538
0000f0 f6 ee bc 3c 25 af a9 bc ab a7 9c 3c 91 63 21 3d
       0.023063164 -0.020713398 0.019122919 0.039401595
000100 0c d2 9d bc 87 d5 8a 3c 59 7f 75 3a 54 5f c4 bb
       -0.019265197 0.01694752 0.00093649846 -0.0059928093
000110 cd 5e 45 3b 42 26 c7 bc 20 f5 45 bc e4 07 ec bc
       0.003011632 -0.024310235 -0.012082368 -0.028812356
000120 49 67 ec 3c 4c 6d c2 3c d2 6d 09 bd 94 23 21 3d
       0.028857844 0.023733757 -0.033552 0.03934057
000130 cb 93 1e bd e8 ef 13 bc 2a e7 9d bc a4 a9 dc 3c
       -0.038715165 -0.009029366 -0.019275267 0.02693636
000140 c9 9e 8c 3c 6c ba 20 bd e6 9b 26 3d 18 8c ee ba
       0.017165558 -0.039240286 0.04067602 -0.001819971
000150 56 bd 13 bd 82 97 20 3d 3f e7 d1 3c 0e e7 a0 3c
       -0.036069237 0.03920699 0.025622962 0.019641425
000160 32 49 17 3d bb c0 86 3c 86 6e 11 bd 71 82 38 3c
       0.03693504 0.016449323 -0.035505794 0.011261568
000170 31 cd 9d 3c 77 64 47 bc 0b 13 d4 bc d9 ba ea bc
       0.019262882 -0.012169949 -0.025887987 -0.028653549
000180 fd a4 a0 bc e9 2e 6c 3b 2c a8 14 3d 46 5e da 3c
       -0.019609923 0.0036038703 0.036293194 0.026656281
000190 0a 03 c6 bc 69 9d 01 bc 8a 31 d1 3c 92 1e e9 bb
       -0.024171371 -0.007911065 0.025536317 -0.00711424
0001a0 ef 5f cc 3b c2 f3 b0 bc 01 c9 c3 bc 0f f2 a0 bc
       0.006237022 -0.021600608 -0.023899557 -0.019646673
0001b0 b8 2a 00 3d 1e 38 38 bc 40 7a 8e bc 72 0c e1 3c
       0.03129074 -0.011243848 -0.017392278 0.027471755
0001c0 28 52 86 bc c7 a3 c9 bc 58 09 d0 bc 9a 95 25 bd
       -0.016396597 -0.024614228 -0.02539508 -0.040425874
0001d0 bb 02 8c bc 77 c5 85 bc b9 60 ec ba 95 33 f1 3c
       -0.017091146 -0.01632951 -0.0018034197 0.029443542
0001e0 fd e5 15 3d 0a 46 da bc 70 c7 22 bd 3f c8 04 3b
       0.036596287 -0.026644725 -0.03974098 0.0020260958
0001f0 65 f5 8a bc 43 69 ff bb 7d 6f ed bc e1 21 d5 3b
       -0.016962716 -0.0077945306 -0.028983826 0.006504283

weight f4 [128]
000000 cd 36 7c 3f 3b 94 7d 3f 0c f8 7d 3f 18 6b 7c 3f
       0.9852112 0.99054307 0.99206614 0.9860091
000010 95 4c 7c 3f 52 a5 7c 3f 9b b3 7c 3f 2e 00 7f 3f
       0.98554355 0.9868976 0.98711556 0.9960965
000020 54 fc 7b 3f 3f da 7d 3f 18 15 7e 3f 27 85 7d 3f
       0.984319 0.9916114 0.99250937 0.990313
000030 ef f7 7b 3f 31 a6 7c 3f 37 ad 7c 3f ff f4 7c 3f
       0.9842519 0.9869109 0.98701805 0.98811334
000040 93 18 7e 3f 21 54 7d 3f ee 8f 7c 3f 26 c1 7c 3f
       0.9925625 0.98956496 0.9865712 0.9873222
000050 43 9e 7c 3f af 60 7e 3f fa 76 7c 3f 7a 49 7d 3f
       0.9867899 0.9936628 0.98619044 0.9894024
000060 9a d2 7c 3f 22 73 7d 3f b7 82 7b 3f 61 a6 7d 3f
       0.9875885 0.99003804 0.9824633 0.99082
000070 0d 5a 7e 3f 63 95 7d 3f 73 20 7c 3f 55 db 7d 3f
       0.99356157 0.9905607 0.98487014 0.991628
000080 1f a7 7d 3f ad a9 7d 3f f0 71 7e 3f f0 bf 7c 3f
       0.9908313 0.9908703 0.99392605 0.98730373
000090 75 09 7d 3f 64 d3 7d 3f 55 10 7d 3f 4c 02 7d 3f
       0.98842555 0.9915068 0.98853046 0.9883163
0000a0 a8 ac 7b 3f fc 15 7d 3f 3c 2c 7d 3f 4a 14 7e 3f
       0.9831033 0.9886167 0.9889562 0.9924971
0000b0 92 00 7e 3f 52 ee 7f 3f ca 72 7d 3f 99 c8 7c 3f
       0.9921962 0.9997302 0.9900328 0.9874359
0000c0 5c 53 7c 3f a9 f8 7c 3f 1b c9 7e 3f 65 d8 7c 3f
       0.98564696 0.98816925 0.9952561 0.9876769
0000d0 f6 77 7e 3f 1b 06 7d 3f 79 22 7d 3f e4 56 7c 3f
       0.99401796 0.9883744 0.98880726 0.98570085
0000e0 5e ab 7d 3f d8 8d 7c 3f 33 76 7d 3f ac 25 7d 3f
       0.9908961 0.98653936 0.9900848 0.9888561
0000f0 29 6a 7c 3f df 99 7d 3f 16 71 7c 3f 41 2c 7d 3f
       0.9859949 0.99062914 0.98610055 0.9889565
000100 29 d3 7c 3f fa 96 7c 3f 66 c7 7c 3f 2a 41 7f 3f
       0.98759705 0.9866787 0.9874176 0.9970881
000110 c9 63 7e 3f 6b e9 7e 3f 44 1b 7d 3f b5 c8 7c 3f
       0.9937101 0.9957492 0.9886973 0.98743755
000120 95 6f 7d 3f 51 e8 7d 3f d3 d2 7b 3f 02 08 7e 3f
       0.98998386 0.9918261 0.9836857 0.9923097
000130 77 79 7d 3f d0 c5 7c 3f e2 c9 7c 3f 1e f9 7d 3f
       0.99013466 0.9873934 0.9874555 0.9920825
000140 e1 40 7e 3f d0 a9 7c 3f 14 21 7e 3f bb 94 7c 3f
       0.9931775 0.98696613 0.99269223 0.98664445
000150 6a b1 7c 3f 7c 7d 7c 3f c4 84 7c 3f d1 91 7c 3f
       0.9870821 0.98628974 0.98640084 0.9866
000160 43 4b 7d 3f 0d f7 7b 3f da bc 7d 3f c2 f8 7e 3f
       0.98942965 0.98423845 0.9911629 0.99598324
000170 99 6f 7e 3f 38 54 7d 3f c5 37 7d 3f c1 a4 7c 3f
       0.99389035 0.9895663 0.9891322 0.98688895
000180 84 f4 7e 3f df 12 7c 3f 9b 12 7e 3f 36 98 7d 3f
       0.9959185 0.98466295 0.9924714 0.9906038
000190 45 3e 7e 3f 47 02 7f 3f 4b 6e 7d 3f ec 13 7d 3f
       0.99313766 0.9961285 0.9899642 0.98858523
0001a0 bc a4 7d 3f 57 df 7d 3f 82 b8 7c 3f 06 77 7c 3f
       0.9907949 0.99168915 0.98719037 0.98619115
0001b0 aa 57 7c 3f 1f 58 7c 3f 44 fa 7c 3f 71 31 7c 3f
       0.98571265 0.9857196 0.98819375 0.9851294
0001c0 29 da 7b 3f 37 66 7c 3f 87 14 7d 3f 14 cf 7c 3f
       0.9837976 0.9859347 0.9885945 0.98753476
0001d0 a1 48 7d 3f 05 c1 7c 3f 07 72 7e 3f f8 7e 7e 3f
       0.9893895 0.98732024 0.9939274 0.9941249
0001e0 76 96 7c 3f c6 f6 7c 3f 20 83 7e 3f ec 2b 7e 3f
       0.98667085 0.98814046 0.9941883 0.9928577
0001f0 2f f2 7d 3f c3 f6 7e 3f 5a 82 7c 3f 85 e0 7e 3f
       0.9919767 0.9959528 0.986364 0.9956134

bias f4 [128]
000000 a9 a2 92 b9 33 64 5e ba f2 54 23 3a 35 55 32 bb
       -0.0002796848 -0.0008483559 0.00062306144 -0.0027211432
000010 f9 c9 47 bb a5 f4 c4 38 95 8e 58 bb 12 50 00 bb
       -0.0030485375 9.391577e-05 -0.003304397 -0.0019578976
000020 64 5c c9 ba 29 91 ec 3a ec 9d bb 3b a5 92 a9 b8
       -0.0015362618 0.0018048632 0.005725613 -8.085863e-05
000030 27 b9 3c ba 03 9f 6c bb b3 86 21 bb 6d ef 52 bb
       -0.00071992207 -0.003610552 -0.0024646937 -0.0032186166
000040 a3 df 7c 3b 4d 50 46 ba 86 10 b4 ba 04 8b b0 b9
       0.0038585446 -0.00075650663 -0.0013737835 -0.0003367291
000050 a5 3c 4b 3a 1f b0 42 bb ae 73 01 ba 31 e1 7b 3a
       0.0007752872 -0.0029707027 -0.0004938197 0.0009608446
000060 6f 19 7a ba 79 4e c0 39 a8 b1 af b8 d1 0c 6f bb
       -0.0009540533 0.0003667956 -8.377741e-05 -0.0036476145
000070 80 ce c4 3a 45 64 80 bb e4 8d 99 ba ef 98 14 bb
       0.0015015155 -0.003918203 -0.001171526 -0.0022674163
000080 95 c3 94 ba 18 c8 72 bb c2 75 d9 ba 50 7f c7 bb
       -0.0011349792 -0.0037045535 -0.0016590881 -0.006088175
000090 10 72 76 ba be 67 f4 b9 5c b7 f9 ba 8e a0 8b b9
       -0.0009401152 -0.000466166 -0.0019051838 -0.0002663177
0000a0 27 b2 95 bb 70 0c 3b bb 21 df 0a 3a 07 c2 76 ba
       -0.0045683566 -0.002854135 0.0005297531 -0.00094130676
0000b0 77 5c 3d 3a 2b 14 ac 3b 6a 99 7e bb 07 04 0e bb
       0.0007223556 0.0052514276 -0.0038848766 -0.002166988
0000c0 ae cd 40 bb 72 a1 99 bb 4f ef 13 b8 89 fd 46 ba
       -0.002941947 -0.0046884352 -3.5270405e-05 -0.000759088
0000d0 13 55 b8 39 1d 91 52 bb fd 4f 87 39 c0 85 df ba
       0.000351586 -0.0032129951 0.00025808802 -0.001705341
0000e0 d8 68 1b 3b aa 0a 2b bb 83 82 94 ba 2f c1 8a b9
       0.0023713615 -0.0026098886 -0.00113304 -0.00026465344
0000f0 82 b5 cf ba cb e5 68 3b 7f f6 4f bb fb 55 f2 ba
       -0.001584694 0.0035537358 -0.0031732616 -0.0018488759
000100 9d 97 89 bb 84 cf 9d bb b0 5c 5d b9 89 81 e4 3a
       -0.004198982 -0.0048159976 -0.00021110731 0.0017433624
000110 a8 9f fe b8 f2 bc fc b9 d7 96 cd b9 cf 2b 46 bb
       -0.00012141402 -0.0004820596 -0.0003921303 -0.0030238514
000120 b6 da 91 bb e8 14 93 3b 9c 11 88 b8 ad ae 8d 3b
       -0.004451121 0.004488576 -6.488265e-05 0.0043238015
000130 17 b4 24 3b a9 88 94 3a d7 12 e8 ba 7b 45 b0 3b
       0.0025131756 0.0011332232 -0.001770581 0.0053793765
000140 01 e4 18 bb 09 88 32 bc 97 dd 09 3b 0a 71 8a ba
       -0.002332926 -0.010896691 0.002103662 -0.0010562253
000150 d4 7d 87 3a 5f 7d 20 39 2f 89 3d ba 6a f2 b7 ba
       0.0010337182 0.00015305493 -0.000723022 -0.0014034037
000160 6e 30 da 3a 6f 79 87 ba 3a 95 4f 39 0b ce 3e 3a
       0.0016646513 -0.0010335873 0.0001979665 0.00072786276
000170 a2 dd 58 3b 60 3f 13 bb 4e 13 d8 3a 5f 51 6e bb
       0.0033091088 -0.0022468194 0.0016485245 -0.003636442
000180 d4 38 79 bb 20 38 97 3a 2f cc 34 3b 60 3b fe b9
       -0.0038028257 0.0011537112 0.0027587523 -0.00048490893
000190 c0 1a d2 ba 7a c5 a0 3b f7 19 fd 3a b7 77 0e 3b
       -0.0016029701 0.0049063535 0.0019310106 0.0021738836
0001a0 a0 22 f9 3b dd 6e 87 3a 8f ee 63 bb 15 8e 90 ba
       0.0076030046 0.0010332722 -0.0034779643 -0.0011028672
0001b0 30 6b 60 bb ae be 78 3a 3d 80 08 ba 52 04 ff bb
       -0.0034243576 0.00094888627 -0.0005207097 -0.0077824974
0001c0 c5 68 35 bb 2c ef 35 bb 70 94 41 bb 0f b1 b2 ba
       -0.0027680856 -0.0027760966 -0.0029537939 -0.001363309
0001d0 c4 8d 8b ba 71 61 e9 ba e1 9c 7e 3a 5e 60 69 3b
       -0.0010647108 -0.0017805529 0.0009712708 0.0035610418
0001e0 52 19 cb 39 cc 64 80 ba 0f e2 18 ba 32 ef 8d 3b
       0.00038738042 -0.0009795665 -0.0005832025 0.004331493
0001f0 d7 2f 02 3b 06 47 d4 3a a3 3f 88 ba 9a 60 e4 b9
       0.001986494 0.0016195483 -0.0010394942 -0.00043559523

running_mean f4 [128]
000000 20 81 82 be ac dd 9c bd 10 4d d3 be 37 17 06 be
       -0.2548914 -0.07659468 -0.41269732 -0.13094793
000010 d4 da 03 3e 0f 90 12 bf ae 8c 44 bd ff 56 54 3f
       0.12876445 -0.57251066 -0.047985725 0.82945246
000020 ee cc 79 be 00 07 5e be 95 ea fc 3b 9a d8 50 be
       -0.2439458 -0.21682358 0.007718394 -0.20395127
000030 75 5e b1 be bf eb c8 bd 16 7c 41 be ee 32 02 3f
       -0.34642377 -0.0981059 -0.18894991 0.5085896
000040 01 ab a6 be 83 92 1b 3e a5 7e 85 3e e2 96 0f be
       -0.3255234 0.15192609 0.26073185 -0.14022401
000050 ec 82 1d 3e 1e 3e ec 3e d2 aa 6f be 11 56 30 3e
       0.15381974 0.46141142 -0.23405007 0.17220332
000060 b8 2d 09 3b 5b a2 d7 bd 3e ab 2d bd bf 76 03 3e
       0.0020931792 -0.10529014 -0.042399637 0.12838267
000070 e3 59 f2 3e 55 be ef 3d 4a 90 8f be 7e 45 a1 be
       0.47334203 0.11706225 -0.2803977 -0.3149833
000080 75 2f 70 be e4 8f 6c 3d c9 2e 15 bd 14 a5 a3 3e
       -0.23455603 0.057754412 -0.03642157 0.31961882
000090 11 49 e8 bd 6a af 02 3f 30 1a e0 3e da 6c 39 3e
       -0.11342061 0.5104891 0.4376998 0.1810793
0000a0 fc d2 32 3f 8d 75 ba be 0e 64 55 3f 86 32 16 3f
       0.69853187 -0.3641781 0.83355796 0.5867084
0000b0 fc 6d d9 3d 32 0d 39 3f 15 ff b8 bd b2 a7 ec 3e
       0.10616681 0.7228576 -0.09033028 0.4622169
0000c0 4b f8 37 be 03 45 0b 3e d9 b9 48 bf 5e 1d c9 bc
       -0.1796581 0.13600545 -0.7840858 -0.024550136
0000d0 ac 4a 53 3f a1 3e 8c 3e 17 0c ac 3e cb e4 be be
       0.82535815 0.27391532 0.33602974 -0.3728393
0000e0 30 cd 23 bd 90 eb 85 bc de de 3e be 51 c9 c7 be
       -0.039990604 -0.016347677 -0.18639705 -0.3902078
0000f0 50 7f 8d bd 00 85 c8 be eb f5 db 3e 55 64 13 3f
       -0.069090486 -0.3916397 0.42961058 0.5757497
000100 28 ef 96 3e b9 c0 1e 3e ae dd b3 3e bb a0 5f 3f
       0.29479337 0.15503205 0.35130066 0.8735463
000110 6f 7c 0d 3f 1e 00 b6 3e 37 bb 0e 3d 94 f6 2e 3e
       0.55267996 0.35546964 0.03484651 0.1708625
000120 86 08 56 3f b8 21 81 be d0 1d ba 3d 5e 31 ed be
       0.83606756 -0.25221038 0.090877175 -0.46326727
000130 74 77 46 3e d5 b8 00 bf 9d 82 07 be 85 5d c6 3e
       0.19381505 -0.5028203 -0.13233419 0.38743225
000140 4a a4 0b 3f 8e 63 26 3e e7 5b ef bb 07 35 2a be
       0.5454756 0.16248915 -0.007304657 -0.16621791
000150 24 30 d7 be 52 a3 9c 3d 8a ea 0b bf 4b e3 01 3c
       -0.42028916 0.076483384 -0.54654753 0.007927726
000160 64 17 8c be 60 f9 af bc 32 26 6f be c2 31 17 3f
       -0.27361596 -0.021481216 -0.23354414 0.590603
000170 38 19 1b 3f 67 d3 b5 be 3e e1 03 bf 4e 87 86 bd
       0.60585356 -0.3551285 -0.5151557 -0.06568776
000180 6a de 69 3f fd 52 8f 3e 04 eb 98 3e 7a 07 df 3e
       0.91355 0.27993003 0.29866803 0.43560392
000190 70 62 d2 3e 51 32 b8 be f1 a0 de 3e 3d b1 2e be
       0.41090727 -0.35975888 0.43482164 -0.17059799
0001a0 01 fc ae 3e ff fd 9a 3e 05 8b ad be db d9 b4 3c
       0.3417664 0.3027191 -0.33895126 0.022076538
0001b0 47 6e d4 3d 89 2f c8 3d b2 28 23 3e e5 10 a4 3e
       0.10372596 0.097746916 0.15933493 0.3204414
0001c0 a4 c0 9e 3d 2a 4b 9b be 55 40 f8 3e 31 79 a3 3e
       0.07751587 -0.30330783 0.4848658 0.319284
0001d0 16 a2 dc 3e e2 c9 cd 3d f2 c4 10 3e aa 4c fc 3e
       0.43092412 0.10048272 0.14137629 0.4927724
0001e0 50 d5 2f 3d c2 e6 44 be 3b 33 f3 3e 7c c0 05 be
       0.04292804 -0.19228652 0.47500023 -0.13061708
0001f0 b3 f4 b2 be 3b 66 23 3f 2a 28 83 be b1 8d 63 3f
       -0.34952316 0.63827866 -0.2561658 0.8888808
